CardioCOG/ann_model_best.pth (torch, 14465 bytes, 12 tensors)

ann.linear1.weight f4 [32, 22]
00000000: 70f3 593d e29f e3bd 37a2 77bd 4bdb b8bd
00000010: e1c0 37be 7297 25be d581 1f3e 944c 6f3d
00000020: 76f2 b9bd 5b9f 713d a6f0 79bb 55f9 8f3d
00000030: c370 8f3d 9765 1f3e 71b5 0dbe e795 0b3e
00000040: 2557 053e fd7d e43d f07e e93d f4be 233d
00000050: 1445 4c40 48a5 5140 25f5 9ebc 4204 b83d
00000060: ef38 70bd 9bba a43e 7a72 c2bd 5e14 9bbd
00000070: e51c 1a3e 3723 95be 950d 573d ad5b aabd
00000080: 3ff7 6abe 8d56 35bd 7f74 86bf b2ea 56bf
00000090: 77c5 f03d e34a 233d 5150 fdbd 2c94 98bd
000000a0: a608 123c 16fd ed3d 7c7f 62bf f24e 62bf
000000b0: 1aac d1bd e69d c23d 90f2 80be 5298 a6be
000000c0: 8a7a 203e 4a3d 0cbe 8d06 b2bd ebab 42bd
000000d0: 94f6 05bd 5c0a 12be 1df0 e13b 9233 dc3b
000000e0: 0e66 093e 0c20 123e 5981 223d 645d c23c
000000f0: 12af a4be de9f d23d eedc 183e 935e 51bc
00000100: 789f c63f 8881 c53f aa29 023e 280b 09be
00000110: 4818 ccbd d5fd 43be 7913 613e c57f cb3c
00000120: ea6e bbbd c2a0 18be d418 073e eb2c 083e
00000130: 7b54 c23d a188 8e3d c4a3 cb3e 4ba1 9c3e
00000140: 1b92 3f3d 9d97 4d3d d0a6 01be 4053 973e
00000150: cd82 ae3c 90f4 a9bd 7409 25be 0b2d 32be
00000160: 06c7 a03d 916f 933c cb77 08be 7ccb bc3d
00000170: 89ac 303d e44f a9bb 3799 ef3d aaaf 3d3d
00000180: 86e0 01bd d4b5 68bd 11ed ff3b 4edc 07bd
00000190: 0c27 a33f b37b b53f 8c53 b63d ffaa 45be
000001a0: dd77 c4bd 6f4c aebd 0476 583e dc65 a23d
000001b0: adf8 52bf 3aba 62bf 4189 4abd c387 553d
000001c0: 2893 973c 3936 dd3d 010e 5f3e cfea 05bd
000001d0: c644 4dbe 2e6d db3d 8b20 15be 10ab 263e
000001e0: b331 173d 3a76 ab3d 9406 523e 489a 643e
000001f0: 4fa5 f3bd b964 abbb dd4f d43d 7158 1cbd
00000200: cf70 5cbe 9e18 643e a64c 64bf 2f29 70bf
00000210: 7340 e13d 8b2f b4bd 8cdf 5bbd 7663 b0bd
00000220: 569b aabc ac50 17bd b6f3 a9bd 8781 8dbd
00000230: 08c4 10be 15c7 a93d c5b4 adba 1d4e 043e
00000240: e4c7 ccbe 4871 c5be 31c7 b7bd e3ad 50bc
00000250: 8e3c 83bd af11 09be 273b babd cf11 0bbd
00000260: 99f5 8f3f ec36 873f 0d9c cb3d f4b4 26be
00000270: 02d3 c8bd 4011 8ebd d242 13be 2947 fa3c
00000280: 0d8f 71be ba34 723e 5712 53be 200a 0d3d
00000290: 35bb 973d 6bd6 2ebd 9b5e 36bf 32a0 21bf
000002a0: dbf1 25be c3e3 563e 1f87 b6bd e988 253d
000002b0: 4bcb 15be f1e7 30bd 9af9 2c40 e8f1 3640
000002c0: 1ff3 46be 5a4f 053d c628 043e 45be 293c
000002d0: 1afa 933d 1293 403e 5956 86be 8a50 113e
000002e0: ce4b 8b3e 03c3 24be 47e8 7e3d 64b7 603e
000002f0: e41f e4be 904c 97be 8642 1dbe 86e2 313e
00000300: e841 8b3d 2900 21be 6433 0ebd 7dc1 143e
00000310: 231a 0040 2cfe 0740 4571 30be aa80 08bd
00000320: 1796 ddbd 451b 043e f691 0e3e 3fa3 983d
00000330: 28a3 d33d 8257 763c 2d20 a13d 3273 52be
00000340: a76f dcbc 98df 733e 4b21 0ac0 2b7e 16c0
00000350: 2125 2fbe 3cb3 3f3e e845 babd 7064 7e3d
00000360: 3577 223c a1d8 c13c 872d d63e 8b0a a93e
00000370: 7895 fb3d 9bf9 393e 292c f53c 0a4b 293e
00000380: 9585 aabc d0bb 7e3e 9416 7d3d 6040 14bd
00000390: 529b 5d3e 5114 0cbd 0a59 5cbc f794 4d3e
000003a0: 5aa8 17bf 773c e7be 6f6f fb3c 2539 46bd
000003b0: 2d13 973d 5286 6c3c 2429 0fbd 73b7 19bd
000003c0: 29cf ff3f e94f fc3f 2cb6 cfbd bcce 433e
000003d0: aa54 9c3d 8b99 bbbc 1447 0e3c ab8b c2bd
000003e0: 274a 2bbe 535b 233e 10d9 cabd 5a61 2e3d
000003f0: 528f 8c3d 0b9d 7e3e eaba 45bf 63a4 6cbf
0.053210676 -0.111144796 -0.060457435 -0.09026202 -0.17944671 -0.16171053 0.1557687 0.05842264
-0.09079449 0.058989864 -0.0038137822 0.07029978 0.070039295 0.15566097 -0.13838746 0.13631402
0.13021524 0.11156843 0.114011645 0.03997703 3.1917162 3.275713 -0.019404003 0.08985187
-0.058648046 0.3217362 -0.09494491 -0.07572244 0.15050085 -0.2912843 0.052503187 -0.08318267
-0.2294588 -0.044271994 -1.0504302 -0.83951867 0.117564134 0.03986634 -0.12368835 -0.074501365
0.008913195 0.11620538 -0.88475776 -0.8840171 -0.10237904 0.09502773 -0.2518506 -0.32538086
0.15671745 -0.13695255 -0.08692656 -0.047527235 -0.03270586 -0.14261764 0.006895079 0.006720015
0.13417837 0.14270037 0.039674137 0.023726173 -0.32164818 0.102843985 0.14928028 -0.012778896
1.5517416 1.5430155 0.12711206 -0.13383162 -0.09965569 -0.19139798 0.21980084 0.024841199
-0.091520146 -0.14905074 0.13193065 0.13298385 0.094887696 0.06959654 0.3977338 0.30591807
0.046770196 0.050193418 -0.1266129 0.29555702 0.021302605 -0.082986 -0.16116887 -0.17399995
0.07850461 0.017997535 -0.13326947 0.09218499 0.043133292 -0.0051669944 0.11699145 0.046310104
-0.031708263 -0.05681403 0.007810243 -0.033169083 1.2746291 1.4178375 0.08902654 -0.19303511
-0.095931746 -0.08510672 0.2113877 0.079295844 -0.824107 -0.8856541 -0.0494473 0.052131426
0.018502787 0.10801358 0.21782686 -0.032694634 -0.20045766 0.10714184 -0.14563195 0.16276193
0.03691263 0.08372159 0.20510322 0.22324479 -0.118967645 -0.005230513 0.10366795 -0.03817028
-0.21527408 0.22275016 -0.89179456 -0.9381284 0.10998621 -0.087981306 -0.053679988 -0.08612721
-0.020826023 -0.03694217 -0.08298437 -0.06909471 -0.1413728 0.08289925 -0.0013252726 0.12920423
-0.39996254 -0.3856299 -0.089735396 -0.01273677 -0.06408034 -0.13385652 -0.09093314 -0.03395253
1.1246825 1.0563636 0.09941874 -0.16279966 -0.098058715 -0.06936884 -0.14380959 0.03055151
-0.23589726 0.23652926 -0.20612465 0.034433484 0.07408754 -0.042684954 -0.71238106 -0.63135064
-0.16205542 0.20985322 -0.08912491 0.04041377 -0.14628331 -0.043189947 2.7027345 2.8585148
-0.19428681 0.03254638 0.12906179 0.010360305 0.072254375 0.18806103 -0.26237753 0.1419088
0.27206272 -0.16090016 0.062233236 0.21944958 -0.4455558 -0.295506 -0.15357408 0.17371568
0.0679968 -0.15722717 -0.03471698 0.14526935 2.0015953 2.1248884 -0.17230709 -0.03332583
-0.10819643 0.12901028 0.13922867 0.07453012 0.10333854 0.015035512 0.07867465 -0.20551756
-0.026908709 0.23815763 -2.158282 -2.3514507 -0.17104007 0.18720716 -0.09095365 0.062107503
0.0099161165 0.023662867 0.4183161 0.33015856 0.12284368 0.18161623 0.029928284 0.16532531
-0.02081565 0.24876332 0.06178911 -0.036194205 0.21641281 -0.034199063 -0.013448963 0.20076357
-0.5924126 -0.4516332 0.030692784 -0.04839434 0.07376704 0.014436321 -0.034951344 -0.037528466
1.9985095 1.9711887 -0.101421684 0.19121832 0.07633336 -0.022900363 0.0086839385 -0.09499296
-0.16727506 0.15952806 -0.09904683 0.04257331 0.06863274 0.24864595 -0.77238333 -0.92438334

ann.linear1.bias f4 [32]
00000000: 58b2 113f b286 04c0 86bd 2140 9f6d 8640
00000010: 131f 1dc0 6ca9 e8c0 b772 883f 2dd7 ab40
00000020: ed22 d740 e585 fcbf 96c5 163f 9c01 5240
00000030: 39d3 203f b72d 5b40 31a0 e03f 854f 0c40
00000040: d635 e63f f1af 1cc0 0d32 d940 0b6b 60be
00000050: 112a eabf c318 71c0 b495 88c0 6cda 38c1
00000060: e8ca 3840 90a1 e23f 3a25 2dc0 397f 7dc0
00000070: 1ffa 453e 53ea a23f cb7c 11c0 2270 95c0
0.56912756 -2.0707211 2.5271926 4.2008815 -2.4550216 -7.2706814 1.0660008 5.3700166
6.7230134 -1.9728361 0.5889524 3.2813482 0.628223 3.4246652 1.7548887 2.1923535
1.798518 -2.4482386 6.7873597 -0.21915834 -1.8294088 -3.7671363 -4.2682743 -11.553326
2.8873844 1.7705555 -2.7053971 -3.96089 0.19333695 1.272776 -2.2732418 -4.669938

ann.linear2.weight f4 [5, 32]
00000000: 3865 5dbc 862c 1dbd 5cce a2bd aad6 da3d
00000010: f498 5fbd 2ded 96bd 43b2 abbc 505e b03d
00000020: f211 2a3e 16f7 0bbd d08e 3ebd 2079 c6bc
00000030: b8c8 ce3c 9e25 4d3e e0cb 183d 4310 aebc
00000040: 7571 a9bd 61c0 9abd b51b 933d 6b4d 05be
00000050: 749d 6abc 8960 3bbd cb8b 5bbe f51d f4be
00000060: 6b4a 483d 3829 363d afe1 c63c 87ea 88bc
00000070: 6dc0 013e 38cd 0dbe c9ce 72bd db5d f73c
00000080: 2341 733c 90ad b73b a66e e63c 7b3d b13d
00000090: 1b95 a2bc a6fa 48be 34c6 973c 1146 04bd
000000a0: 8a75 053e 8ee1 e0bd e199 9e3d 17f1 033e
000000b0: 76af b83c e912 c13c 1122 80bd 5e3c e2bd
000000c0: 8870 1abc 1d30 1f3d 1cbb 81be 11e4 d6bd
000000d0: 98e7 edbc c3d0 fabc 5527 e7bc 0a57 17bf
000000e0: 4af9 273e fea6 86bd 9d9c 773c 19a3 ffba
000000f0: 66c6 623d c30b 0bbe e97e ccbd f49a d73d
00000100: 26c7 91bd a84f af3d 48f9 f9bc a7d6 fb3b
00000110: 579d 8d3d a822 9d3c e2e8 45bd 7ec8 a7bd
00000120: e505 903d 1188 0e3d 3805 3d3d 6958 b9ba
00000130: 193e 6abd 9269 63bd 4e84 843d 524d 80bc
00000140: fcac 5d3d bd6f 913d b76c 4dbd b8e5 b0bb
00000150: f730 cbbd 0410 04be aac2 02bd b44b e0bd
00000160: 8203 39bc 28b5 063b 3593 7f3d ea03 de3d
00000170: 13d7 00bd 81e6 85bc 372d 65bd 4480 873d
00000180: d8e2 babc c8a0 b7bc c44e c4bc 51d6 b0bc
00000190: 080f 26ac a35b 0800 3c33 8eaf e96e b7bc
000001a0: e2b3 0780 4dbd 0500 f78e 0680 c9ba 80bb
000001b0: 6b95 a29f c76a edb0 bd3b 86bc c65d 3cba
000001c0: ae02 a7bc 0997 cab7 e308 0c00 9aac 6ab7
000001d0: 1dab 9bbc 182f 0580 2e54 50aa b576 0d00
000001e0: a110 21bc 82a7 46b2 887c c4bc 8594 88ac
000001f0: 9aba 0c80 760a 94bc 3b82 0180 0dc7 0100
00000200: 3dcd 0600 9a4a d3bc 745f 0800 71be 0200
00000210: acd0 0180 0591 b2bc efe0 e0bc c288 c0bc
00000220: 1070 0680 c58f 44bc 5a10 26b9 1873 0e00
00000230: 7681 d3bc d561 0500 7c81 0c00 bf44 0100
00000240: 265e c3bc 83f2 2d8c 7aa5 0b80 2226 2193
00000250: fc32 0880 5487 0a00 09cb d7bb 3ddc 0800
00000260: fbf4 36bb 8f07 0500 3a34 0b00 b30c 97bc
00000270: c8a1 0080 99ad 0280 99d7 0780 9064 69bb
-0.013512902 -0.03837254 -0.07949516 0.10685475 -0.054589227 -0.073694564 -0.020959025 0.08611739
0.16608408 -0.034171186 -0.046522915 -0.024227679 0.025242195 0.20033881 0.037303805 -0.021247989
-0.08273593 -0.075562246 0.07183019 -0.13017814 -0.014319766 -0.04574636 -0.21440046 -0.47679105
0.048899096 0.044472903 0.024277536 -0.016713394 0.12671061 -0.13847816 -0.059279237 0.030196121
0.014847073 0.005605407 0.028128933 0.086543046 -0.01984649 -0.19626865 0.018527128 -0.032293383
0.13033119 -0.10980521 0.07744194 0.12884937 0.022544604 0.023568587 -0.06256498 -0.110466704
-0.009426244 0.038864244 -0.25338066 -0.10492719 -0.029041097 -0.030617123 -0.028216997 -0.59117186
0.1640369 -0.0657482 0.015113023 -0.0019503563 0.05536499 -0.13578705 -0.09985144 0.10527602
-0.07118063 0.08560115 -0.030514374 0.0076855007 0.06914776 0.019181564 -0.048317797 -0.08192538
0.07032374 0.03479773 0.046147555 -0.0014140728 -0.057188127 -0.0555206 0.064705476 -0.01566187
0.05412005 0.071013905 -0.050152507 -0.0053984784 -0.09921449 -0.12896734 -0.031923927 -0.10951939
-0.01129234 0.0020554755 0.062396247 0.1084059 -0.03145511 -0.016345264 -0.055951323 0.066162616
-0.022813246 -0.022415534 -0.02396334 -0.021586569 -2.3598363e-12 7.67557e-40 -2.5866054e-10 -0.022391753
-7.07378e-40 5.27086e-40 -6.02299e-40 -0.0039285165 -6.885686e-20 -1.7274367e-09 -0.016385907 -0.0007185604
-0.02038702 -2.4150608e-05 1.105214e-39 -1.3987674e-05 -0.019002492 -4.76072e-40 -1.8503317e-13 1.236446e-39
-0.009830625 -1.1563204e-08 -0.023985162 -3.8818415e-12 -1.168966e-39 -0.018071394 -1.38553e-40 1.63241e-40
6.24639e-40 -0.025792409 7.68926e-40 2.51988e-40 -1.66693e-40 -0.021797666 -0.027451007 -0.023502711
-5.91213e-40 -0.011997168 -0.00015837085 1.326985e-39 -0.025818568 4.94273e-40 1.148476e-39 1.16497e-40
-0.023848604 -1.3400413e-31 -1.069552e-39 -2.0339858e-27 -7.52974e-40 9.66902e-40 -0.006585483 8.1369e-40
-0.0027917016 4.61889e-40 1.028926e-39 -0.018438673 -5.8036e-41 -2.45946e-40 -7.2019e-40 -0.0035612918

ann.linear2.bias f4 [5]
00000000: 0071 d240 9dbb a33f 25fb 6fc0 2587 51b4
00000010: c057 8faf
6.576294 1.279163 -3.7497036 -1.9513807e-07 -2.6073899e-10

exp_avg f4 [32, 22]
00000000: 9e8d b23c 247a 4dbc 02a1 173c 9d8a b23c
00000010: fe7c 4dbc c29c 173c c58f b23c 0673 4dbc
00000020: be9f 173c be8d b23c a175 4dbc 81a6 173c
00000030: 24ea 533b 82f8 533b a502 87bd 3501 87bd
00000040: 498b 823b dd8c 913c 2531 173d be28 ee3d
00000050: 9d72 9f39 5ee3 9f39 41da 0ebd 719d 8f3c
00000060: c619 8ebc acd6 0ebd 9099 8f3c 221a 8ebc
00000070: 78d8 0ebd 7195 8f3c 7117 8ebc ebda 0ebd
00000080: be96 8f3c 7919 8ebc f6cc 2abb 92a9 2abb
00000090: f42e ee3d 8c2e ee3d 25d2 2c3d 2dd1 4abc
000000a0: c5f2 2dbd 9284 f9bd 3043 e8b9 3142 e8b9
000000b0: 8264 88bb c64d 3d3c 8922 f23b 3577 88bb
000000c0: 5e50 3d3c 2a2c f23b 3463 88bb cd47 3d3c
000000d0: ea34 f23b e067 88bb 164a 3d3c 3638 f23b
000000e0: 37ad 12bb caab 12bb f41e 15bd 1f1f 15bd
000000f0: 1be7 4fbd 44dd 44bd f370 32bd ca03 ba3b
00000100: 020c eeb8 e03a eeb8 4008 8d3c f45a 293a
00000110: 2651 923c 9201 8d3c 6448 2a3a c253 923c
00000120: aa03 8d3c d450 293a 0356 923c 6008 8d3c
00000130: 7ef4 293a b254 923c 5556 513b ef46 513b
00000140: 30aa c2bc 1daa c2bc f1d4 03bc 3bc2 2abc
00000150: a110 01bd 4539 adbb 36c1 173a 99b8 173a
00000160: feaf 09bd 0774 8e3c c9f0 84bc daaf 09bd
00000170: 8c74 8e3c 19ee 84bc 97af 09bd a074 8e3c
00000180: a9ee 84bc 6ab1 09bd cc73 8e3c b1ee 84bc
00000190: 8b85 94bb 8879 94bb 54bf 823d dbbd 823d
000001a0: aceb 403d 109a ea3b 5964 61bd 9c04 b7bd
000001b0: b3b7 07ba 01e1 07ba 9640 133c 8e1a c2bc
000001c0: daf3 70bc 3347 133c 1517 c2bc fef5 70bc
000001d0: 423a 133c 6919 c2bc bafa 70bc 7d49 133c
000001e0: de1a c2bc 1cf1 70bc ff34 40ba d328 40ba
000001f0: dcbc d5bc 7dba d5bc 3bb1 f1bc c596 7fbc
00000200: 9bfd dbbc 4da4 9f3c 7396 36b8 fe87 38b8
00000210: 16b2 8f3c 6809 1fbb a69e 773c f8ad 8f3c
00000220: 1bfe 1ebb 5b9f 773c 09ae 8f3c 2506 1fbb
00000230: f79a 773c 85b1 8f3c dffa 1ebb 53a6 773c
00000240: 0e05 b93a dc09 b93a 1f37 9abd b736 9abd
00000250: d8a9 80bd 3060 2fbd 9ae6 1fbd 4310 1b3d
00000260: 51fb 7939 e843 7939 4e84 393c 78a2 383b
00000270: 75ab 673c 397d 393c aca5 383b dbb0 673c
00000280: 3e76 393c 83e5 383b eda6 673c 9381 393c
00000290: 44ca 383b cbad 673c ecb6 b4ba ba9b b4ba
000002a0: 2fa7 85bd 3ba5 85bd d00b 84bc f57c b03d
000002b0: 9aad 4f3c c175 8c3e 9ccb 3839 cf6d 3a39
000002c0: 5111 8d3c 786d e33b cdf2 c53c 9d15 8d3c
000002d0: cb70 e33b 08f4 c53c e40f 8d3c a276 e33b
000002e0: ccf5 c53c 0512 8d3c f46f e33b aff4 c53c
000002f0: 2244 153b 4d5d 153b 9a4d 46bd 2a4a 46bd
00000300: 9e22 09bd ef89 4fbc 0b4d e63c e968 efbd
00000310: 16b7 df37 ec0e ea37 cf31 f3bc 76fc c73c
00000320: 4ccd acbb 7f2b f3bc 1300 c83c fabd acbb
00000330: 072c f3bc 79fd c73c 9fbd acbb 8032 f3bc
00000340: 96fc c73c 3db0 acbb dc74 093a 34f3 083a
00000350: 8a73 103e 7a74 103e 92db 4b3d 4ab7 0f3d
00000360: 392d 7dbd 141f bcbc 8f27 deb8 e900 e0b8
00000370: 363a df3c e38b a3bc 58a2 ee3b 1a3b df3c
00000380: 2190 a3bc b4b4 ee3b ef38 df3c 7490 a3bc
00000390: feb1 ee3b eb36 df3c fa8f a3bc acb0 ee3b
000003a0: ec36 733b 8a4e 733b c27f f93c 1e7e f93c
000003b0: ba6b 9dbc 9e82 41bd ab8a 4ebd f5e5 8ebd
000003c0: 171e 2939 bfd4 2839 1a61 f43b c6c1 afbb
000003d0: 6e3c 093b b167 f43b 15d1 afbb af1f 093b
000003e0: 935b f43b 6ec4 afbb 021f 093b 2f6d f43b
000003f0: 0fcc afbb 5859 093b 32be 2bb9 3a56 2db9
0.021796044 -0.012541328 0.009254696 0.021794612 -0.0125420075 0.009253683 0.02179707 -0.012539631
0.009254394 0.021796104 -0.012540252 0.009256006 0.0032335604 0.0032344167 -0.06592301 -0.06592027
0.0039838892 0.017767364 0.036912102 0.11628865 0.00030412237 0.00030496245 -0.034876112 0.017531129
-0.017346274 -0.034872696 0.017529279 -0.017346445 -0.03487441 0.017527314 -0.017345162 -0.034876745
0.017527934 -0.01734613 -0.0026062108 -0.0026041013 0.11630049 0.11629972 0.042192597 -0.012378973
-0.04246785 -0.12183489 -0.00044300547 -0.00044299805 -0.004162372 0.011554187 0.007389371 -0.004164601
0.011554806 0.0073905187 -0.0041622166 0.011552763 0.0073915618 -0.0041627735 0.011553308 0.007391955
-0.0022381076 -0.0022380226 -0.036406472 -0.036406633 -0.05075751 -0.048062578 -0.043564748 0.005676721
-0.00011350961 -0.00011359691 0.017215848 0.00064603915 0.01786096 0.017212663 0.00064957724 0.017862204
0.017213661 0.00064588827 0.01786328 0.017215908 0.00064832706 0.017862651 0.0031942327 0.003193315
-0.023762792 -0.023762757 -0.008046375 -0.010422285 -0.03151 -0.005286368 0.00057889835 0.00057877
-0.033615105 0.01738931 -0.016228097 -0.03361497 0.017389558 -0.016226815 -0.03361472 0.017389596
-0.016227083 -0.03361646 0.0173892 -0.016227098 -0.004532521 -0.004531089 0.06384149 0.06383868
0.047099754 0.007159479 -0.05502734 -0.08936426 -0.00051772146 -0.00051833695 0.008987566 -0.023694303
-0.014706576 0.008989143 -0.023692647 -0.014707087 0.008986058 -0.023693757 -0.014708215 0.008989689
-0.023694452 -0.014705922 -0.0007332116 -0.0007330302 -0.026091032 -0.026089901 -0.029503455 -0.015599911
-0.026854327 0.019487524 -4.3532298e-05 -4.399567e-05 0.017540973 -0.0024267081 0.015113508 0.01753901
-0.0024260345 0.015113677 0.017539041 -0.0024265137 0.01511263 0.017540703 -0.0024258418 0.015115338
0.0014115886 0.0014117318 -0.07530045 -0.07529967 -0.06282395 -0.04281634 -0.03903828 0.037857305
0.00023840113 0.00023771788 0.011323048 0.002817301 0.01414 0.011321359 0.002817492 0.014141287
0.011319695 0.0028212972 0.014138919 0.011322397 0.0028196732 0.014140557 -0.0013787425 -0.001377932
-0.06526028 -0.06525656 -0.016118914 0.08617584 0.012675667 0.2743359 0.00017623458 0.00017779249
0.017220171 0.00694054 0.024163628 0.01722222 0.006940936 0.024164215 0.017219491 0.0069416324
0.024165057 0.017220506 0.006940836 0.024164526 0.0022776206 0.0022791207 -0.04841385 -0.048410572
-0.03348028 -0.012667163 0.028112909 -0.11689932 2.6668928e-05 2.7901922e-05 -0.029686837 0.024412375
-0.0052734967 -0.029683826 0.024414098 -0.0052716704 -0.02968408 0.024412857 -0.005271628 -0.029687166
0.024412435 -0.0052700327 0.00052435487 0.00052242284 0.14106575 0.14106932 0.049769945 0.035086907
-0.061810706 -0.022964038 -0.00010593153 -0.00010681322 0.027249437 -0.019964164 0.0072825365 0.027249862
-0.019966187 0.007284725 0.027248828 -0.019966342 0.007284402 0.027247867 -0.019966114 0.0072842445
0.0037111593 0.003712567 0.030456427 0.030455645 -0.019216407 -0.047243707 -0.050425213 -0.069774546
0.00016128305 0.00016100983 0.0074578645 -0.0053636758 0.002094056 0.00745865 -0.0053655007 0.0020923426
0.0074572056 -0.0053639924 0.0020923023 0.0074593048 -0.005364902 0.0020957794 -0.00016378684 -0.00016530688

exp_avg_sq f4 [32, 22]
00000000: 1286 433c d1cb 2c3c 3f8b ab3b 0b86 433c
00000010: d9cb 2c3c 4f8b ab3b 0186 433c cdcb 2c3c
00000020: 498b ab3b 1286 433c cfcb 2c3c 468b ab3b
00000030: f530 5539 dc30 5539 089c 3e3e 039c 3e3e
00000040: e88c 8b3c 9d08 e33c a953 c53c b4dd e93d
00000050: 714b 2b35 4048 2b35 5c32 923c d1e6 663c
00000060: bd21 ec3b 5f32 923c cae6 663c bb21 ec3b
00000070: 6232 923c d1e6 663c ba21 ec3b 6332 923c
00000080: cbe6 663c ba21 ec3b 4dbd 8b39 91bd 8b39
00000090: ebda 383e f2da 383e 5b99 043d b935 803d
000000a0: c1a2 143d d0df 063e 27b3 7e35 42b3 7e35
000000b0: de88 1a3b 7799 6d3b f9ad 873b d988 1a3b
000000c0: 7599 6d3b 00ae 873b e088 1a3b 7299 6d3b
000000d0: fdad 873b e788 1a3b 7899 6d3b 03ae 873b
000000e0: 78b1 0039 73b1 0039 e155 923d e155 923d
000000f0: b7a7 ab3c ee38 e23c 5ea8 e93c 76e1 c83d
00000100: a45c 9d35 985c 9d35 ff8c 273c 0388 a33b
00000110: 2dd8 ab3b f88c 273c 1288 a33b 32d8 ab3b
00000120: fb8c 273c 0788 a33b 37d8 ab3b ff8c 273c
00000130: 0488 a33b 35d8 ab3b 89ba 2039 5cba 2039
00000140: b1f9 933d b2f9 933d 2f51 b53c 6cd3 0c3d
00000150: 4f37 0c3d afa7 ba3d 5554 b935 dd54 b935
00000160: 8c1e 843c 59c4 5c3c 5fd2 c43b 8d1e 843c
00000170: 62c4 5c3c 5cd2 c43b 911e 843c 62c4 5c3c
00000180: 58d2 c43b 901e 843c 57c4 5c3c 59d2 c43b
00000190: 7869 a539 5b69 a539 fb80 663e f680 663e
000001a0: c567 053d 7c87 883d efe7 143d 334b 5b3e
000001b0: b316 9635 e716 9635 7c8a 913c 9dd9 413c
000001c0: d8e5 4a3c 7a8a 913c 9dd9 413c d5e5 4a3c
000001d0: 7a8a 913c 9cd9 413c d8e5 4a3c 788a 913c
000001e0: 9dd9 413c dae5 4a3c 146e 8139 166e 8139
000001f0: 4014 4c3e 4814 4c3e 4acc 1e3d 0c0c 9c3d
00000200: 8299 563d 4368 bc3d 241c a835 e41b a835
00000210: c2d5 143c b6fe 0d3c ea7b 793b c6d5 143c
00000220: b8fe 0d3c ec7b 793b c7d5 143c b5fe 0d3c
00000230: e17b 793b c6d5 143c b4fe 0d3c d67b 793b
00000240: 94e1 1e39 99e1 1e39 c6b2 f03d c9b2 f03d
00000250: acf9 983c c3a9 063d e9fb 843c faeb e73d
00000260: 5b00 1635 0401 1635 d989 663b 109a b93b
00000270: ce50 d53b dd89 663b 109a b93b bd50 d53b
00000280: dc89 663b 1b9a b93b cb50 d53b d689 663b
00000290: 189a b93b c450 d53b faed 7439 f5ed 7439
000002a0: aa2d 383e a82d 383e 575a 143d b6fe 803d
000002b0: 4c0e 263d 8c21 d33e ea61 cf35 c05d cf35
000002c0: bc44 303c 034f 9d3b 6244 ca3b bb44 303c
000002d0: fe4e 9d3b 5f44 ca3b b744 303c 034f 9d3b
000002e0: 6044 ca3b ba44 303c 014f 9d3b 5f44 ca3b
000002f0: 5f98 3639 6f98 3639 7550 353e 7d50 353e
00000300: ee98 1b3d df23 713d 0445 4a3d 798f 153e
00000310: da4d 1636 784d 1636 9f55 723c c09a e63b
00000320: 49cf f83b a355 723c ca9a e63b 3acf f83b
00000330: ad55 723c bf9a e63b 3ccf f83b 9b55 723c
00000340: c39a e63b 3dcf f83b 922f 2939 622f 2939
00000350: 66a0 fc3d 5da0 fc3d e9b9 ce3c 4116 193d
00000360: 8db9 c83c 8b36 0e3d 9c71 3635 a86d 3635
00000370: 5a82 113c 55af 303b d20f 703b 5782 113c
00000380: 5eaf 303b c70f 703b 5082 113c 66af 303b
00000390: cb0f 703b 4d82 113c 60af 303b d40f 703b
000003a0: 4787 c238 7c87 c238 007b d93d 037b d93d
000003b0: a049 cb3c c519 283d c9aa 133d c97f 373e
000003c0: b981 af35 f181 af35 359d 633b 20f4 bf3a
000003d0: a97c 3a3b 3a9d 633b 22f4 bf3a a57c 3a3b
000003e0: 379d 633b 1ff4 bf3a a67c 3a3b 3e9d 633b
000003f0: 1ef4 bf3a ad7c 3a3b f33e 2538 113f 2538
0.01193382 0.0105466405 0.0052351053 0.011933814 0.010546648 0.0052351127 0.0119338045 0.010546637
0.00523511 0.01193382 0.010546639 0.0052351085 0.00020331501 0.00020331464 0.18614209 0.18614201
0.017034963 0.027714068 0.024087744 0.1141924 6.3812246e-07 6.38076e-07 0.017846279 0.014093117
0.0072061704 0.017846284 0.01409311 0.0072061694 0.01784629 0.014093117 0.007206169 0.017846292
0.014093111 0.007206169 0.00026653186 0.00026653384 0.1805226 0.18052271 0.032372814 0.06260247
0.036288027 0.13171315 9.4883075e-07 9.488323e-07 0.0023580114 0.0036254802 0.004140612 0.0023580103
0.0036254798 0.0041406155 0.002358012 0.003625479 0.004140614 0.0023580135 0.0036254805 0.004140617
0.00012273144 0.00012273136 0.07145286 0.07145286 0.020953996 0.027615037 0.028522667 0.09808628
1.1724374e-06 1.172436e-06 0.010226487 0.004990579 0.005244276 0.010226481 0.004990586 0.0052442783
0.010226483 0.004990581 0.0052442807 0.010226487 0.0049905796 0.0052442797 0.00015328279 0.00015328213
0.07225359 0.0722536 0.022133438 0.034381315 0.034232434 0.09114014 1.3808118e-06 1.3808273e-06
0.016127847 0.013474547 0.0060065235 0.016127849 0.013474556 0.006006522 0.016127856 0.013474556
0.0060065202 0.016127855 0.013474545 0.0060065207 0.00031549833 0.00031549748 0.2251014 0.22510132
0.032569665 0.066664666 0.036354 0.21415405 1.1182477e-06 1.1182536e-06 0.01776623 0.011831668
0.012383901 0.017766226 0.011831668 0.012383898 0.017766226 0.011831667 0.012383901 0.017766222
0.011831668 0.012383902 0.00024686812 0.00024686818 0.199296 0.19929612 0.038769044 0.07619485
0.05239249 0.09199574 1.2525165e-06 1.2525093e-06 0.009084167 0.008666685 0.0038068243 0.009084171
0.008666687 0.0038068248 0.009084172 0.008666684 0.0038068222 0.009084171 0.008666683 0.0038068197
0.00015152089 0.00015152096 0.11752848 0.117528506 0.01867374 0.03287674 0.016233401 0.11324306
5.587987e-07 5.588083e-07 0.0035177378 0.0056641176 0.006509877 0.0035177388 0.0056641176 0.006509869
0.0035177385 0.0056641228 0.0065098754 0.0035177371 0.0056641214 0.006509872 0.00023358306 0.00023358299
0.1798617 0.17986166 0.036218967 0.06298582 0.04054098 0.41236532 1.5451199e-06 1.5449987e-06
0.010758575 0.0048006787 0.0061727026 0.010758574 0.0048006764 0.0061727013 0.01075857 0.0048006787
0.0061727017 0.010758573 0.0048006778 0.0061727013 0.00017413635 0.00017413658 0.17706473 0.17706485
0.037987642 0.0588721 0.049382225 0.14605512 2.2397057e-06 2.2396835e-06 0.0147909215 0.0070374906
0.0075930697 0.014790925 0.0070374953 0.0075930627 0.0147909345 0.00703749 0.0075930636 0.014790918
0.007037492 0.007593064 0.00016134817 0.00016134747 0.12335281 0.12335274 0.025235133 0.03737474
0.02450254 0.034719985 6.7965607e-07 6.7959854e-07 0.008881176 0.0026959975 0.0036630523 0.008881173
0.0026959996 0.0036630498 0.008881167 0.0026960014 0.0036630507 0.008881164 0.002696 0.0036630528
9.275838e-05 9.275877e-05 0.106191635 0.10619166 0.02481538 0.0410402 0.036051545 0.1791984
1.307627e-06 1.3076334e-06 0.0034731154 0.0014644898 0.002845565 0.0034731166 0.0014644901 0.0028455642
0.0034731159 0.0014644897 0.0028455644 0.0034731175 0.0014644896 0.002845566 3.939769e-05 3.93978e-05

exp_avg f4 [32]
00000000: 5cdb 8a39 19b7 10b9 3280 2fb8 bb85 fe38
00000010: 9aa6 bfb9 eea6 ca39 f7f7 d338 4c2e 82b9
00000020: 30a8 c4b8 1d82 32b8 a155 eb39 580d db38
00000030: c979 3839 b6ad d9b9 4f2f 96b8 aa34 d638
00000040: e18a 59b9 cdc4 2138 c7fe b639 8e23 e1b8
00000050: 0aaf 1a39 4006 5e37 a6f2 ec39 1084 8a39
00000060: 6de1 7f39 c1a6 dab9 97de f8b8 f587 1938
00000070: 94af d1b8 521e 7439 1157 93b9 8e43 b2b9
0.00026484847 -0.0001380112 -4.1842643e-05 0.00012136573 -0.00036554487 0.00038652815 0.00010107451 -0.00024830026
-9.377336e-05 -4.2559685e-05 0.0004488649 0.00010445219 0.00017592976 -0.0004151889 -7.161369e-05 0.000102141246
-0.00020746469 3.8568676e-05 0.0003490357 -0.000107354586 0.00014751792 1.3233686e-05 0.00045194215 0.00026419805
0.00024402673 -0.00041704442 -0.00011867022 3.6604662e-05 -9.9986006e-05 0.00023280949 -0.00028102894 -0.00034001138

exp_avg_sq f4 [32]
00000000: 2ca1 8435 6de5 cb35 237f db35 bcf1 f335
00000010: 02fc e635 9efd dc35 0dfb 6035 8cf3 0d36
00000020: dcfa 2e36 a9cb 8035 bbbe db35 ff70 b435
00000030: cfef 4a35 d8c8 8436 d5e2 3d35 03fb 4b35
00000040: 9e50 cc35 bf98 1336 0113 1936 7c09 2036
00000050: 9f6a ba34 751a 9335 49be 2e36 e97a d036
00000060: 3a45 ca35 d1d8 8835 1269 aa34 3eeb c735
00000070: 126b a235 eccf 3136 6791 6235 3b52 ac35
9.881674e-07 1.519145e-06 1.6353773e-06 1.8175265e-06 1.7209679e-06 1.646509e-06 8.381183e-07 2.11524e-06
2.607404e-06 9.596016e-07 1.6372281e-06 1.3443931e-06 7.559983e-07 3.957288e-06 7.073807e-07 7.5988663e-07
1.5222647e-06 2.1993617e-06 2.2809838e-06 2.3847379e-06 3.4722777e-07 1.0960053e-06 2.603878e-06 6.2131917e-06
1.507032e-06 1.0195891e-06 3.1741416e-07 1.489512e-06 1.2101102e-06 2.6496082e-06 8.440315e-07 1.2838931e-06

exp_avg f4 [5, 32]
00000000: cb31 573d 2738 16be d3f6 96bd b428 c53c
00000010: d85e 763d 0bec 95bd d364 18be 2b35 1cbe
00000020: 7f3e 3fbd 287e 13bd 8e5e 56bb b047 f4bd
00000030: c709 bcbd 37ec ddbd 891b d9bb fc20 0b3d
00000040: 9394 ba3d 151b 01bd b693 34bc ec38 82bd
00000050: 3549 c0bd da13 0bbe e1a0 d7bc 2790 1cbc
00000060: c997 25bc eeb4 4a3c 0599 8dbd 97d1 47be
00000070: 5559 23bd ed24 36bd 5d8a 8fbb fa17 003d
00000080: 91d3 24bd c8cf cbbc 2686 3fbe 04e1 1abd
00000090: 028f 393e a6ed 393b 37ed cb3e 6ec2 11bd
000000a0: f315 93bc 5296 17bc d020 093e 6627 c3bc
000000b0: ee92 ca3e f883 68bc 576c 1cbc ef14 b23d
000000c0: 618d ddbc fa59 bcbd 6eb0 58bc 6062 8a3d
000000d0: 5f42 dd3c f808 ba3d f724 d33c 934c 4b3a
000000e0: 9b31 813d dbf9 083d b03c d0bd 8d8e ce3e
000000f0: 3d2f 5cbc 4a39 2ebd 50f0 313d 04bb 553b
00000100: 4f3c 8ebe 7956 6dbe b8e5 a2bd 5a40 1e3d
00000110: 4c65 07bf c279 88be 5428 2cbe 6974 4a3d
00000120: d65e 113c 51e5 ed3b 13e0 86bb 18cf 2abc
00000130: 3a8a dcbe ea65 7d3d 5326 08be 00c9 29be
00000140: d615 7dbe 74e1 c23e 636e 33bd 51cf bc3e
00000150: c5d6 a6bd cfbc b7bb 875b 893b ded5 833c
00000160: 75d2 0bbe 78ba 683d 6c2f 67bd d43e 84bd
00000170: e275 e03d 418a cc3c a865 6ebc 2bcd 16be
00000180: 3266 75b4 f024 71b4 c1d9 80b4 3946 68b4
00000190: 3d4e f8a3 0200 0080 697c 4ea7 cce3 70b4
000001a0: 0200 0080 0300 0000 0300 0000 19af 2ab3
000001b0: 4f14 8e97 346c aaa8 d594 30b4 2d26 fcb1
000001c0: 8e6f 5bb4 10cf 89af 0000 0080 6b1a 20af
000001d0: be9c 4cb4 0300 0000 275f 1ea2 0200 0080
000001e0: 8a79 d4b3 2504 0daa a1f7 80b4 7e93 4ba4
000001f0: 0200 0000 e3a3 42b4 0400 0000 0400 0080
00000200: 0300 0080 0d9e 8ab4 0200 0080 0400 0080
00000210: 0400 0000 e17e 6ab4 237c 93b4 f8bd 7cb4
00000220: 0400 0080 5a74 01b4 00b2 dfb0 0000 0080
00000230: dac1 8ab4 0400 0080 0400 0080 0400 0000
00000240: ad38 80b4 1612 5984 0300 0080 5fb0 248b
00000250: 0300 0080 0000 0080 158e 8eb3 0400 0080
00000260: b8ca f2b2 0400 0080 0100 0000 2e87 46b4
00000270: 0300 0000 0400 0000 0200 0080 e4aa 1ab3
0.05253772 -0.14669858 -0.07371297 0.02406726 0.060149044 -0.07320412 -0.14882211 -0.15254657
-0.04669046 -0.036008984 -0.0032710168 -0.11927736 -0.091815524 -0.1083607 -0.006625597 0.033967003
0.091103695 -0.031519968 -0.011021545 -0.06358513 -0.09388963 -0.13581792 -0.02632183 -0.009555853
-0.010106989 0.012372239 -0.06913952 -0.19513546 -0.039880116 -0.04446881 -0.004380508 0.031272866
-0.040240828 -0.024879351 -0.18703517 -0.037812248 0.1812096 0.002837041 0.39829418 -0.035585813
-0.017954802 -0.009252148 0.13391423 -0.023822498 0.39565223 -0.01419162 -0.009547315 0.08695399
-0.027044954 -0.09196849 -0.013225658 0.06757045 0.027009187 0.09083742 0.025774462 0.0007755246
0.063082896 0.033441406 -0.10167825 0.40343133 -0.013438997 -0.042535104 0.04344207 0.003261269
-0.27780387 -0.23177518 -0.079539716 0.03863559 -0.5288894 -0.26655394 -0.16812259 0.049427424
0.008872708 0.0072600027 -0.004116067 -0.010425352 -0.43074208 0.06186477 -0.1329587 -0.16580582
-0.24715361 0.38062632 -0.043806445 0.3687692 -0.08146433 -0.0056072245 0.004191819 0.01609319
-0.13654502 0.056818455 -0.05644171 -0.06457296 0.10959984 0.024968268 -0.014550604 -0.14726703
-2.2854582e-07 -2.2458312e-07 -2.4000295e-07 -2.163223e-07 -2.6921349e-17 -3e-45 -2.8655686e-15 -2.2434614e-07
-3e-45 4e-45 4e-45 -3.974046e-08 -9.181662e-25 -1.8920717e-14 -1.6445422e-07 -7.3385054e-09
-2.0436548e-07 -2.5067282e-10 -0.0 -1.4561301e-10 -1.9056003e-07 4e-45 -2.1463366e-18 -3e-45
-9.894127e-08 -1.2524754e-13 -2.4022032e-07 -4.414354e-17 3e-45 -1.812728e-07 6e-45 -6e-45
-4e-45 -2.58195e-07 -3e-45 -6e-45 6e-45 -2.1839107e-07 -2.7471205e-07 -2.3538439e-07
-6e-45 -1.205639e-07 -1.6275976e-09 -0.0 -2.584555e-07 -6e-45 -6e-45 6e-45
-2.3883095e-07 -2.5516532e-36 -4e-45 -3.1717938e-32 -4e-45 -0.0 -6.638235e-08 -6e-45
-2.8264694e-08 -6e-45 1e-45 -1.8489365e-07 4e-45 6e-45 -3e-45 -3.6011343e-08

exp_avg_sq f4 [5, 32]
00000000: b181 913e 92db 833e cf71 c73e d380 8d3e
00000010: 523d 193e 32e9 533e 3c3c 903e 4aa7 633e
00000020: ba15 553e 1259 d23d cb10 453e b89c 433e
00000030: 2b2f 8b3e 4d70 cb3e e18d a73e dfb8 543e
00000040: 4a8a 343e d324 a43d 6edb a93e b27c 1c3e
00000050: 64a1 133e 55cc 783f 5b45 a83c c696 323d
00000060: 0d51 653e 7e1f 0c3e 9dc1 bc3e b82a 613f
00000070: d979 533e b0db 083f 9b7a 973e 9e82 8c3d
00000080: cec3 443f 4a30 d03f ca59 8a3e d100 d43e
00000090: c5f8 743f 0851 c43d 3cf8 5f3f 4815 453e
000000a0: 2786 bf3d 25bd 5c3d 6ac6 7b3f de0b 8f3d
000000b0: fcc7 a03f e7e6 d33c 3fd3 953d ee79 f43d
000000c0: 930a f53e cd52 003f c122 a53a ff16 183e
000000d0: 7476 aa3d fb29 173e 6989 1a3e 0356 f438
000000e0: 84d7 9d3d 71cc 123e bf28 453e 212c c53e
000000f0: 1d7e 053e 9bd0 6c3d 0def 203f f443 9f3e
00000100: 672d 4f3f d170 9d3f 94bf ae3e 1a6d 5c3f
00000110: 4d91 e03f c3d7 c13f f467 6b3f 0d4c 373e
00000120: 7703 373e 032e 733e a037 383f ca3e cf3d
00000130: 7436 8c3f acbf 083f 764c 863e 8009 ee3e
00000140: a357 803f 37e3 4c40 eb46 9c3e a334 5d40
00000150: dcce c53d 331c 073f 8161 503e b3b0 a63d
00000160: 4032 823e 3c71 203f e5b7 903e 77f1 213f
00000170: d894 b93e 9000 8c3f 6238 083f 721d 813f
00000180: 99c0 5031 ef3c 3c31 bcf1 8f31 1656 1931
00000190: 07b9 622b df0c 411f a7a1 ad2b 4119 3b31
000001a0: 3716 3027 4a11 8727 2c7a fb26 cd17 a92e
000001b0: 23d5 8f2a 7f50 d52b 5d2f 5130 f3a2 cf2d
000001c0: 94c4 e830 8b5a 0a2d 45fa c702 c691 ef2c
000001d0: 3578 ad30 f9b4 6d26 4ab7 3a2b 710f 4b01
000001e0: bc9d 852f dc88 062c 92e0 9031 381f 6c2b
000001f0: 8e59 2925 1afb 8f30 428c f526 3d3c 3429
00000200: d130 3326 0bde 1a32 9d6b e427 fd63 3529
00000210: 95d8 0e25 4aaf 3d31 0e9e 9d32 5323 9431
00000220: 368d 041a 9791 e32f e66c 7a2d af80 7122
00000230: 9662 1c32 5551 3329 fcce 4718 3244 2424
00000240: 459c a331 b908 122a 428c 8418 e921 372a
00000250: 5d12 2e23 4afb 9b1a 99be 2e2f 65fd df19
00000260: 9ce2 922e 26b4 7728 ec1c 7b0f 0bf9 b530
00000270: 87f8 2323 0cdf 3e29 d3c9 ae22 4632 b52e
0.2841926 0.25753456 0.38954017 0.27637348 0.14964798 0.20694426 0.28170955 0.22231784
0.2080907 0.10270895 0.19244687 0.19102752 0.27184424 0.39734116 0.32725433 0.20773648
0.17630878 0.08014836 0.33175224 0.15281942 0.14417034 0.97186786 0.020540884 0.04360082
0.223942 0.13683888 0.36866465 0.8795581 0.2065195 0.53460217 0.29585728 0.06860851
0.76861274 1.6264737 0.2702163 0.41406873 0.9569209 0.09585768 0.8748815 0.192464
0.093517594 0.05389132 0.9834963 0.06984685 1.256103 0.025866939 0.073156826 0.11937319
0.4785963 0.50126344 0.0012598858 0.14852522 0.083233744 0.14762108 0.1509148 0.000116508476
0.07707122 0.143358 0.19253825 0.3851023 0.1303639 0.05781613 0.6286476 0.31106532
0.80928653 1.2300054 0.34130538 0.86103976 1.7544342 1.514397 0.91955495 0.17900105
0.17872415 0.23748021 0.71959877 0.10119398 1.0954118 0.5341747 0.2623021 0.46491623
1.0026745 3.201368 0.30522856 3.4563377 0.09658596 0.52777404 0.20349695 0.081391715
0.25428963 0.6267278 0.282653 0.6325907 0.3624637 1.0937672 0.53211033 1.0087111
3.0377463e-09 2.7392237e-09 4.1893298e-09 2.2313364e-09 8.0548106e-13 4.0879986e-20 1.2337257e-12 2.7226437e-09
2.443695e-15 3.748877e-15 1.7449738e-15 7.689458e-11 2.5549796e-13 1.5156902e-12 7.6101064e-10 2.360554e-11
1.6936093e-09 7.864496e-12 2.938407e-37 6.8089727e-12 1.2621572e-09 8.2471156e-16 6.633484e-13 3.729629e-38
2.4304636e-10 1.9118518e-12 4.2164823e-09 8.388737e-13 1.4688756e-16 1.0475987e-09 1.7038307e-15 4.0020277e-14
6.216926e-16 9.0144665e-09 6.3399387e-15 4.02768e-14 1.2389918e-16 2.760276e-09 1.834908e-08 4.311383e-09
2.741103e-23 4.1394507e-10 1.4235035e-11 3.2729715e-18 9.102811e-09 3.981653e-14 2.5824648e-24 3.5619595e-17
4.76169e-09 1.2970431e-13 3.4262824e-24 1.626543e-13 9.4364475e-18 6.451248e-23 1.5892922e-10 2.3160005e-23
6.679565e-11 1.3750318e-14 1.23808256e-29 1.3240266e-09 8.8888754e-18 4.2381937e-14 4.7376484e-18 8.2398574e-11

exp_avg f4 [5]
00000000: 9ba6 cfba 5b54 163a 892d 40bb c032 13ac
00000010: c032 50a7
-0.0015842499 0.0005734616 -0.0029324016 -2.0918128e-12 -2.889331e-15

exp_avg_sq f4 [5]
00000000: 8742 9239 258f b539 c765 ad39 18fc 2c2c
00000010: fae2 ac2b
0.00027896857 0.0003462966 0.0003307296 2.458261e-12 1.2284334e-12
