CardioVI/bilstm_q1_onlyiiTrue_transTruebce_bound_model_best_qat.pth (torch, 518781 bytes, 73 tensors)

encoder.conv1.weight f4 [32, 1, 8]
0.3936864 0.10410989 -0.11391537 -0.32061237 -0.28077418 -0.32278687 0.55075365 -0.008104656
0.21330346 0.04104109 0.088746876 -0.35809392 -0.3466042 -0.13442606 0.49722913 0.13412447
0.366474 -0.18177298 -0.4491707 -0.33748198 0.0732985 -0.01967514 0.4769075 0.06558437
2.16924e-40 4.67784e-40 3.54575e-40 3.79797e-40 -9.977157e-37 -2.6800583e-30 -9.308462e-27 -4.5898087e-25
-0.3886718 0.22945316 0.35703105 0.5473184 -0.08980609 -0.24413264 0.057306357 -0.47752136
-0.00054133177 4.30267e-05 0.0002625283 -0.00184873 8.932686e-05 0.00016952444 0.0016063944 7.650312e-05
0.08413846 0.059615664 0.0073843137 0.29348782 0.17014517 0.053890966 -0.1925495 -0.11487751
0.4228629 0.035075877 0.09680239 0.2425341 0.124392465 -0.36155024 -0.5557616 -0.020015297
1.0540343e-05 2.6226433e-06 3.6712026e-07 -6.772219e-09 -3.6378707e-09 -1.1091736e-09 -1.244591e-09 -2.4234316e-08
-0.28233027 -0.21103995 -0.025128072 0.29116875 0.569026 0.095798165 0.0757035 -0.5104047
4.6081e-40 5.06949e-40 -7.89479e-40 7.17427e-40 -6.67685e-40 -2.723e-42 -1.74848e-40 8.73306e-40
-0.29718092 -0.2570036 -0.22637032 -0.06603157 0.0070664845 0.09976309 0.21394582 0.11562501
0.32425988 0.06573254 0.3225825 -0.1352281 -0.41915435 -0.36310014 -0.3104947 0.49974573
-0.3982099 0.39318854 0.3047208 0.102648735 -0.41169846 -0.41494918 0.39038092 0.019293152
0.059512615 0.041392088 0.029744979 0.020282203 0.025682218 0.033907745 0.03906945 0.04605976
1.6704969e-14 1.2108126e-13 2.3895279e-14 6.3848812e-24 7.8227846e-38 -7.4347e-41 -1.12244615e-35 9.197771e-16
3.78069e-40 -4.5126e-41 6.28672e-40 -1.70734e-40 8.4184e-41 1.04002e-40 3.907e-40 2.35271e-40
6.89384e-40 8.24915e-40 1.8342e-40 -6.6419e-41 -1.17687e-40 4.83304e-40 6.4116e-41 -4.29307e-40
-5.0316e-41 1.1098e-41 2.82667e-40 2.91497e-40 7.588e-40 6.16926e-40 5.39811e-40 3.4328e-40
-0.083496414 -0.08472627 0.07980287 0.21516228 0.1755949 -0.09416708 -0.3715497 -0.07960531
-0.27144882 -0.023801891 -0.35095832 -0.0078091715 0.30750868 0.33471817 0.2573881 -0.08610945
4.13358e-40 1.208452e-39 8.8308e-40 3.16776e-40 -9.69225e-40 2.12395e-40 1.036178e-39 -3.21636e-40
-3.19795e-40 7.53995e-40 -3.64836e-40 4.6584e-40 -3.82313e-40 -6.93875e-40 6.77333e-40 -4.33143e-40
0.053320605 -0.28693673 -0.29378125 -0.2824639 -0.1008506 0.14673205 0.41983488 0.36278218
6.0057487e-06 1.1402174e-08 1.0478917e-10 6.9992123e-10 6.0513494e-10 1.7012934e-10 5.771884e-12 1.2249355e-09
0.02701113 -0.019135842 -0.07500765 -0.035193764 -0.056081373 -0.0720083 -0.081155986 -0.021709343
-0.39080217 0.24360049 0.11403394 0.23922703 -0.20651968 -0.053587325 -0.43230966 0.49148417
-0.012270956 0.057951473 0.02298361 0.287417 0.11920996 0.020757977 -0.44391024 0.18815808
0.00019436449 0.00013996499 9.869184e-05 6.387693e-05 3.0109459e-05 1.4174181e-05 7.880291e-06 -1.8284409e-07
-0.39580002 -0.28128505 -0.2922673 -0.07297141 0.110322826 0.26184535 0.5581426 0.10570338
0.008844365 0.015255816 0.018623153 -0.007493801 0.006828846 -0.008325596 -0.0044498006 -0.028542096
0.12413408 0.29937765 0.40382344 0.069042705 -0.17868912 -0.19751011 -0.014206637 -0.5327699
00000000: 4491 c93e 9137 d53d 764c e9bd 4e27 a4be
00000010: a2c1 8fbe 5244 a5be 31fe 0c3f 64c9 04bc
00000020: 396c 5a3e b41a 283d ecc0 b53d 1658 b7be
00000030: 1b76 b1be fca6 09be d194 fe3e ed57 093e
00000040: 7ba2 bb3e b222 3abe b4f9 e5be 70ca acbe
00000050: 861d 963d c22d a1bc 382d f43e 1951 863d
00000060: b25c 0200 fe17 0500 69dc 0300 b822 0400
00000070: a6c0 a983 a26e 598e 835f 3894 360c 0e97
00000080: fdff c6be c5f5 6a3e c6cc b63e 0f1d 0c3f
00000090: 41ec b7bd e8fd 79be 12ba 6a3d ae7d f4be
000000a0: 29e8 0dba 9177 3438 f4a3 8939 1651 f2ba
000000b0: fe54 bb38 5fc2 3139 a78d d23a 4d70 a038
000000c0: c950 ac3d 8e2f 743d 1df8 f13b 0944 963e
000000d0: 893a 2e3e c6bc 5c3d b22b 45be e644 ebbd
000000e0: 7c81 d83e b9ab 0f3d 5540 c63d dc5a 783e
000000f0: 7ac1 fe3d 1d1d b9be 6446 0ebf 1ff7 a3bc
00000100: 6ed6 3037 ab00 3036 a018 c534 11b1 e8b1
00000110: 19fe 79b1 9471 98b0 270e abb0 d32b d0b2
00000120: 988d 90be db1a 58be 63d9 cdbc 1214 953e
00000130: b0ab 113f d431 c43d 700a 9b3d e2a9 02bf
00000140: 8d04 0500 2b85 0500 bf98 0880 e5cf 0700
00000150: 3c45 0780 9707 0080 68e7 0180 6c82 0900
00000160: 1928 98be fa95 83be 9fcd 67be 8f3b 87bd
00000170: f88d e73b 9750 cc3d 9d14 5b3e cecc ec3d
00000180: 6405 a63e c89e 863d 8929 a53e 3c79 0abe
00000190: 669b d6be 43e8 b9be 29f9 9ebe acde ff3e
000001a0: 2be2 cbbe 0250 c93e 5d04 9c3e 8039 d23d
000001b0: 24ca d2be 3874 d4be 02e0 c73e ac0c 9e3c
000001c0: 80c3 733d c08a 293d beab f33c dd26 a63c
000001d0: 8463 d23c d9e2 0a3d 4a07 203d 29a9 3c3d
000001e0: 0977 9628 4c53 082a c33a d728 cd00 f718
000001f0: daf4 d401 40cf 0080 c8b7 6e85 c98d 8426
00000200: e71d 0400 cb7d 0080 7bd8 0600 f0db 0180
00000210: acea 0000 ea21 0100 1d41 0400 d78f 0200
00000220: b981 0700 87fb 0800 4dff 0100 26b9 0080
00000230: 1048 0180 4143 0500 bbb2 0000 bcac 0480
00000240: 438c 0080 f01e 0000 f613 0300 932c 0300
00000250: 3a43 0800 bdb7 0600 c6e0 0500 edbc 0300
00000260: 2b00 abbd f784 adbd b06f a33d 8053 5c3e
00000270: 26cf 333e acda c0bd c33b bebe 1c08 a3bd
00000280: 57fb 8abe 2ffc c2bc cfb0 b3be 14e4 ffbb
00000290: c771 9d3e 2e60 ab3e 5fc8 833e 275a b0bd
000002a0: 4680 0400 ac28 0d00 ab9d 0900 0b73 0300
000002b0: ce8d 0a80 1250 0200 7148 0b00 9780 0380
000002c0: 757b 0380 d535 0800 04f9 0380 9312 0500
000002d0: bc29 0480 3e8e 0780 2160 0700 6db7 0480
000002e0: b566 5a3d 5fe9 92be 7f6a 96be 1c9f 90be
000002f0: c28a cebd ed40 163e 99f4 d63e 96be b93e
00000300: fd84 c936 4be3 4332 0f6f e62e 9464 4030
00000310: 9656 2630 270f 3b2f 8214 cb2c 965a a830
00000320: 7246 dd3c c5c2 9cbc 9c9d 99bd 5627 10bd
00000330: 95b5 65bd 1679 93bd 1c35 a6bd cbd7 b1bc
00000340: 3917 c8be 6872 793e a08a e93d eef7 743e
00000350: e579 53be 627e 5bbd b157 ddbe d0a3 fb3e
00000360: 1f0c 49bc 865e 6d3d 2048 bc3c 5228 933e
00000370: 5a24 f43d a20c aa3c 3448 e3be 83ac 403e
00000380: 52ce 4b39 91c3 1239 c7f8 ce38 aaf5 8538
00000390: 9293 fc37 a5cd 6d37 9835 0437 cd53 44b4
000003a0: 4da6 cabe 9804 90be 0fa4 95be 0972 95bd
000003b0: eff0 e13d 9810 863e 6fe2 0e3f 047b d83d
000003c0: f5e7 103c 88f3 793c 958f 983c 8f8e f5bb
000003d0: 83c4 df3b 1568 08bc a2cf 91bb 1dd1 e9bc
000003e0: 023a fe3d 0748 993e f2c1 ce3e 4366 8d3d
000003f0: 48fa 36be 1740 4abe f4c2 68bc 9c63 08bf

encoder.bn1.weight f4 [32]
0.9308785 0.43339893 0.9745888 0.00053529727 1.0858873 6.162145e-05 0.22845972 1.2760278
-0.0006440623 0.92996347 -1.0523843e-37 0.24582429 0.9980128 0.31578395 0.24871315 0.00019636341
1.0302835e-18 6e-42 -1.989771e-39 0.26169056 0.2822093 -1.43869e-40 -1.7021551e-21 0.9743446
-0.0007490912 0.37707326 0.27507803 0.5128244 -8.437485e-05 1.532277 0.0020202254 0.555047
00000000: 0e4e 6e3f 77e6 dd3e a77e 793f 3153 0c3a
00000010: 5bfe 8a3f c43a 8138 58f1 693e e154 a33f
00000020: 4ad6 28ba 1612 6e3f 3e3e 0f82 5db9 7b3e
00000030: c47d 7f3f 6fae a13e a9ae 7e3e e7e6 4d39
00000040: 030b 9821 ba10 0000 acaa 1580 4efc 853e
00000050: bd7d 903e 0c91 0180 789c 009d a66e 793f
00000060: a95e 44ba bf0f c13e 07d7 8c3e 7648 033f
00000070: 67f2 b0b8 a721 c43f c265 043b 8f17 0e3f

encoder.bn1.bias f4 [32]
0.21216986 -0.10978051 0.1152108 -0.0066696387 0.08381456 -0.0062571666 0.5281424 0.23353128
-0.022563705 0.10020826 -2.9292157e-15 0.27930817 0.2436858 0.07141644 -0.3237441 -0.031414803
-3.1990818e-12 -4.4247667e-25 -6.231821e-23 0.07012829 0.004171728 -1.465802e-13 -1.7809752e-07 0.10466692
-0.01674558 -0.41931713 -0.10175251 -0.106830716 -0.029417165 0.39254585 -0.016732702 0.18485229
00000000: 0e43 593e 9bd4 e0bd a4f3 eb3d fc8c dabb
00000010: f8a6 ab3d eb08 cdbb 5734 073f d322 6f3e
00000020: 85d7 b8bc fd39 cd3d 7e12 53a7 7b01 8f3e
00000030: c588 793e c842 923d c9c1 a5be cfac 00bd
00000040: 891d 61ac 9df0 0897 1bad 969a 6c9f 8f3d
00000050: feb2 883b de08 25aa 133b 3fb4 9c5b d63d
00000060: 072e 89bc bcb0 d6be 9f63 d0bd 10ca dabd
00000070: 44fc f0bc c5fb c83e 0513 89bc eb49 3d3e

encoder.bn1.running_mean f4 [32]
-0.6324721 -18.85766 0.17513165 1.1281867e-22 -0.17712003 0.022910524 -58.26613 3.4884458
-0.0023253271 -3.0028665 -1.811983e-37 64.00185 5.866572 2.7467458 -46.577923 -3.0950992e-11
5.291436e-38 1.0035584e-38 -1.0687374e-37 38.472454 -27.718575 -2.0720762e-38 1.3431769e-37 -3.6714232
-0.001042372 52.320683 0.47250336 -39.00255 -0.08997117 -2.0782225 -0.06931678 5.1512666
00000000: b1e9 21bf 7ddc 96c1 b655 333e b063 081b
00000010: f45e 35be daae bb3c 8410 69c2 b242 5f40
00000020: 8464 18bb f72e 40c0 64a2 7682 f200 8042
00000030: f5ba bb40 afca 2f40 cb4f 3ac2 b81f 08ae
00000040: ed0b 9001 2047 6d00 1078 1182 cbe3 1942
00000050: a4bf ddc1 0ea1 e180 e2d2 3602 99f8 6ac0
00000060: 33a0 88ba 6148 5142 f6eb f13e 9c02 1cc2
00000070: ce42 b8bd 9901 05c0 f5f5 8dbd 2dd7 a440

encoder.bn1.running_var f4 [32]
3146.764 2817.0432 6599.874 7.1e-44 10994.922 0.09923376 17928.602 26476.996
2.3271192e-05 5648.2056 6e-45 34129.285 9671.83 286.90878 8061.629 4.230429e-21
6e-45 6e-45 6e-45 6743.9463 17389.914 6e-45 6e-45 25767.678
4.6933246e-06 11008.82 1291.5637 7583.2314 0.032984782 43338.52 86.57081 31722.91
00000000: 39ac 4445 b110 3045 fe3e ce45 3300 0000
00000010: b0cb 2b46 123b cb3d 3411 8c46 fed9 ce46
00000020: 8136 c337 a581 b045 0400 0000 4951 0547
00000030: 521f 1746 5374 8f43 08ed fb45 33d2 9f1d
00000040: 0400 0000 0400 0000 0400 0000 92bf d245
00000050: d4db 8746 0400 0000 0400 0000 5b4f c946
00000060: 5a7b 9d36 4803 2c46 0a72 a144 daf9 ec45
00000070: 0d1b 073d 854a 2947 4124 ad42 d2d5 f746

lstm.weight_W0 f4 [32, 128]
-0.30732572 0.10871231 -0.014986816 -0.029058779 -0.016072847 0.035398677 8.104764e-38 0.08980098
-0.1566365 -0.057626087 -0.05257454 0.043115634 0.25286433 0.15732676 0.10271281 -0.14881477
-0.014295099 0.08041087 -0.025462309 0.3399635 -0.424948 0.06040111 0.020924037 -0.30867228
-0.118553065 0.08330272 -0.018112296 0.048684034 8.68153e-40 -0.0072698602 0.04121264 0.012139763
-0.050048616 0.101312585 0.11974109 -0.04172046 0.051331062 -0.026384924 -4.344052e-37 -0.04021147
0.1091293 -0.0031079839 -0.03925089 -0.1413184 -0.012439325 0.03243637 0.13235006 -0.05797744
0.1408165 -0.03362396 -0.0088608125 -0.07613873 0.09294982 0.074969895 -0.21492873 0.047354102
0.114592895 0.030682513 0.06247295 0.023034036 1.19705e-40 -0.073150605 -0.067333505 -0.1620523
0.08085303 0.12780459 -0.09630908 0.014355397 0.024435783 0.05852607 -1.1584816e-37 -0.12146554
-0.13800173 0.10701282 -0.023988416 -0.17309524 0.14046381 0.11394567 -0.07977431 0.05471288
-0.14394464 0.04540978 -0.14420035 0.018722052 0.29552814 -0.024608398 -0.023298081 0.09785274
0.04134364 0.035684668 -0.36915416 -0.09602604 -3.8354604e-38 -0.02981187 0.021036379 0.0263625
0.05214318 -0.32972026 -0.0818253 0.005142555 -0.23780344 -0.11924657 3.6948382e-37 -0.023432065
0.05365555 -0.13506672 -0.22310999 0.04264977 -0.03357188 0.35883015 0.2546752 0.16882215
-0.061828345 0.030445881 0.06959799 -0.064291954 0.4054181 0.14010571 0.006983089 -0.1901755
-0.18288994 -0.022008512 0.0554429 -0.06495528 -7.25775e-40 0.03098811 0.103169054 0.10626792
-0.10570831 0.016382597 -0.0711015 -0.036330283 -0.077209905 0.039962724 2.8762698e-37 0.13054092
0.11614646 -0.0051842853 0.028619602 0.007763358 0.16302386 -0.011810823 0.049449008 -0.08534134
0.009689305 -0.029922845 -0.029376583 0.1440845 -0.044299666 0.19507082 -0.13313606 -0.1222739
-0.019894406 0.0058125514 0.033393826 0.015805839 3.82196e-40 -0.080298536 -0.020039886 0.00043609837
0.027229372 -0.13372882 0.039847136 -0.07590065 -0.012537273 0.044419527 6.506301e-37 -0.02092146
0.16621828 -0.07236575 -0.004963508 0.05025314 0.055193212 0.049843594 0.024485126 -0.09973831
-0.034581766 0.093237996 0.21017133 0.07735193 -0.02566001 -0.16296144 -0.014834637 -0.11023981
0.015962677 -0.0658071 -0.043873798 -0.05303056 -1.07718e-40 0.075456895 -0.082221806 0.058551982
0.03757205 0.01765863 -0.15390359 0.09854116 0.13223903 0.17115287 3.053351e-38 -0.12184569
-0.11785317 -0.052187297 -0.13105017 0.083092496 0.042143874 -0.08478752 -0.061379563 -0.0028352893
0.089169264 0.10484278 0.1273451 -0.0043727155 0.0181376 0.10880458 0.10835244 0.047470767
-0.031231504 -0.14020975 0.0537923 -0.1490873 3.38729e-40 -0.052661583 -0.17688915 0.018500516
0.09374662 -0.37097013 -0.061203893 -0.053773344 -0.0065090586 -0.025390226 -6.4467698e-37 -0.0027258645
0.058296744 -0.034880623 -0.023664491 -0.07409323 -0.0009421791 -0.015206787 0.085546866 0.092868395
0.06905539 0.15502703 0.035112023 0.09832421 0.12268268 0.082289115 0.03696039 -0.09939968
-0.025462212 -0.029627983 0.025350615 -0.041934203 -2.73594e-40 0.051713835 0.060035866 0.028201392
00000000: cc59 9dbe 8fa4 de3d 438b 75bc ad0c eebc
00000010: 34ab 83bc 34fe 103d f6a1 dc01 94e9 b73d
00000020: 5265 20be 5509 6cbd 6758 57bd 059a 303d
00000030: 6f77 813e 441a 213e 185b d23d e662 18be
00000040: fe35 6abc 74ae a43d 5596 d0bc b20f ae3e
00000050: c992 d9be 2867 773d e368 ab3c 4b0a 9ebe
00000060: f3cb f2bd 9e9a aa3d 3d60 94bc e968 473d
00000070: 0f74 0900 0238 eebb 96ce 283d dbe5 463c
00000080: c7ff 4cbd f97c cf3d d13a f53d 13e3 2abd
00000090: 8540 523d 3225 d8bc 08d2 1383 c8b4 24bd
000000a0: 2f7f df3d 51af 4bbb 8bc5 20bd c5b5 10be
000000b0: 50ce 4bbc 00dc 043d c686 073e c179 6dbd
000000c0: 3332 103e 47b9 09bd f12c 11bc 9fee 9bbd
000000d0: 7a5c be3d d189 993d 4716 5cbe 60f6 413d
000000e0: aeaf ea3d e559 fb3c a3e3 7f3d e0b1 bc3c
000000f0: b04d 0100 fccf 95bd 26e6 89bd 0af1 25be
00000100: 4696 a53d 35df 023e b23d c5bd e632 6b3c
00000110: 8d2d c83c 08b9 6f3d 31af 1d82 edc2 f8bd
00000120: 5350 0dbe 8a29 db3d 5b83 c4bc e13f 31be
00000130: bfd5 0f3e 595c e93d b760 a3bd 9d1a 603d
00000140: 3966 13be 9bff 393d 42a9 13be fd5e 993c
00000150: 774f 973e 8d97 c9bc 9edb bebc 0467 c83d
00000160: f357 293d 162a 123d c601 bdbe 4da9 c4bd
00000170: 84d2 5081 0638 f4bc 7c54 ac3c 2bf6 d73c
00000180: 1694 553d 18d1 a8be 0694 a7bd e182 a83b
00000190: bf82 73be 8c37 f4bd 2975 fb02 9af4 bfbc
000001a0: ecc5 5b3d ee4e 0abe f276 64be 86b1 2e3d
000001b0: ab82 09bd 96b8 b73e ca64 823e b7df 2c3e
000001c0: b83f 7dbd a469 f93c 6489 8e3d 80ab 83bd
000001d0: f692 cf3e df77 0f3e 65d2 e43b 5ebd 42be
000001e0: 8047 3bbe 324b b4bc 1818 633d 4607 85bd
000001f0: 2ae7 0780 c7da fd3c 4c4a d33d ffa2 d93d
00000200: 997d d8bd cc34 863c aa9d 91bd 10cf 14bd
00000210: 3a20 9ebd f4af 233d b0bf c302 85ac 053e
00000220: 32de ed3d f0e0 a9bb a873 ea3c c463 fe3b
00000230: baef 263e 2f82 41bc 0b8b 4a3d 71c7 aebd
00000240: e4bf 1e3c c120 f5bc 29a7 f0bc e38a 133e
00000250: 9173 35bd a5c0 473e d254 08be bd6a fabd
00000260: 98f9 a2bc 3777 be3b f7c7 083d 3f7b 813c
00000270: 6829 0400 8f73 a4bd b02a a4bc 22a4 e439
00000280: 2210 df3c 35f0 08be c036 233d cd71 9bbd
00000290: 2269 4dbc 40f1 353d e065 5d03 7b63 abbc
000002a0: 2035 2a3e 7f34 94bd eca4 a2bb 3dd6 4d3d
000002b0: 4712 623d cc28 4c3d 0895 c83c 9943 ccbd
000002c0: 9ca5 0dbd 90f3 be3d 2737 573e b06a 9e3d
000002d0: f134 d2bc 5ddf 26be fa0c 73bc 69c5 e1bd
000002e0: 29c4 823c dfc5 86bd 03b5 33bd 9336 59bd
000002f0: 462c 0180 2589 9a3d e863 a8bd 34d4 6f3d
00000300: 26e5 193d d5a8 903c e798 1dbe f3cf c93d
00000310: ab69 073e b342 2f3e 803d 2601 3c8a f9bd
00000320: 015d f1bd 59c2 55bd 0432 06be 662c aa3d
00000330: 0e9f 2c3d 14a5 adbd 2369 7bbd 43d0 39bb
00000340: 609e b63d d0b7 d63d c166 023e ff48 8fbb
00000350: 4e95 943c f0d4 de3d e2e7 dd3d b570 423d
00000360: 36d9 ffbc 2593 0fbe 5155 5c3d 57aa 18be
00000370: 3db0 0300 acb3 57bd 6e22 35be 658e 973c
00000380: 3afe bf3d ccef bdbe efb0 7abd 7041 5cbd
00000390: f149 d5bb 2aff cfbc 495f 5b83 6ba4 32bb
000003a0: 91c8 6e3d fcde 0ebd 09dc c1bc 31be 97bd
000003b0: 92fc 76ba e325 79bc 3233 af3d c931 be3d
000003c0: ea6c 8d3d 68bf 1e3e a0d1 0f3d 345e c93d
000003d0: 0f41 fb3d 3287 a83d c763 173d 0f92 cbbd
000003e0: 2196 d0bc 62b6 f2bc 18ac cf3c 33c3 2bbd
000003f0: abfa 0280 e3d1 533d 2be8 753d 9b06 e73c

lstm.weight_U0 f4 [32, 128]
0.15204576 0.05323406 0.06986664 -0.058780547 0.09795041 0.01715435 -2.884596e-37 -0.0065225204
-0.051670782 -0.10198131 -0.10543031 0.25274646 -0.05125414 0.0035302448 0.0450427 0.0551152
-0.0075756824 0.014698517 -0.09311523 0.0343259 0.122664645 0.069053926 -0.17128642 0.03823553
-0.028219337 0.113078654 -0.07987461 0.05227941 -1.7117e-40 0.09064132 0.18530455 0.039571717
0.1268725 0.07286322 0.1754679 -0.032842 0.1645529 0.057309456 -5.674641e-37 -0.07768507
0.04446634 0.13639887 0.02154853 0.16835214 -0.01405554 -0.071218066 0.04987597 0.11113977
0.056617364 -0.061084818 0.10906596 0.08319249 -0.034581255 0.13662998 -0.09428719 -0.06001854
0.061955906 -0.058318187 0.19671488 0.25226215 -5.76612e-40 0.000563108 0.043962862 -0.092651494
-0.22428888 0.05022457 -0.12008322 -0.010660744 -0.055305015 -0.11202726 -6.1642496e-37 -0.24135128
0.3098319 0.19400722 0.051167265 0.028866962 -0.014035784 -0.31189573 0.15076222 0.2444086
0.0076330313 -0.093036614 0.22449735 -0.062113013 -0.075824305 -0.26511025 -0.00032687123 0.15753128
0.040467437 0.016790718 -0.010147293 -0.017417124 6.16696e-40 -0.31216064 -0.23267324 -0.26975617
0.120605946 -0.038213804 -0.11516408 -0.04246265 -0.15284845 -0.057845656 3.561115e-37 -0.06096912
-0.15326881 -0.14644286 0.20164931 -0.11103402 -0.17506468 -0.27622396 -0.08769621 -0.108861215
-0.0693806 -0.015070703 0.01713462 -0.17971902 -0.035499196 0.15691774 -0.010788522 0.012452141
-0.20443042 0.17170659 0.12263226 -0.2023414 1.04247e-40 -0.1215889 0.026387302 0.1415426
-0.35808963 -0.025920235 -0.30089986 0.053751603 -0.15054394 -0.036608953 -1.0073102e-37 0.072158284
-0.18477438 -0.061082445 -0.010255905 -0.09967928 0.076995626 0.046348415 0.16594952 -0.112299345
-0.08424818 0.14187084 0.17981534 0.110781014 -0.11207761 -0.09272156 0.080113724 -0.22528426
-0.022242825 0.03970664 0.07616533 -0.14187886 3.729271e-37 0.11518919 0.0923487 -0.15328264
-0.02572764 -0.06426597 0.055066567 0.063684165 0.21918143 0.07931416 -3.2147697e-37 0.13608551
0.016542645 -0.05006741 -0.01895405 0.10302288 -0.09677098 -0.22227901 0.03168491 0.030623404
-0.05237838 0.09002827 -0.03472985 -0.09790354 0.04141144 0.03937101 -0.02584413 0.030397845
0.013155294 0.12874223 0.08768089 0.091649875 -5.49785e-40 -0.14599833 -0.25125661 -0.02952328
0.2880543 -0.11192577 -0.13912542 -0.022450704 -0.06966361 -0.09340598 -5.2744354e-37 -0.078569226
-0.04679002 0.19915669 -0.015878368 -0.23644483 0.0853148 0.21770677 -0.2422194 0.108711585
-0.06746421 -0.047578376 -0.08563756 0.0032646854 -0.04697581 -0.084234774 0.053740744 -0.26652727
0.034917694 0.31414184 -0.10820467 -0.1661833 3.9559467e-37 0.14909536 -0.055266768 0.11027839
0.103653744 -0.2567913 0.10640321 -0.01770742 -0.002797669 -0.07355086 -3.0409831e-37 -0.04821691
0.13402666 -0.090199925 0.118168026 0.08813644 0.034117747 0.32618576 0.048847243 -0.019280054
-0.01075498 -0.14142714 -0.04013021 0.2105128 -0.052519288 0.101513654 -0.055230375 -0.10070191
-0.15205225 -0.030594956 0.06604552 0.037138555 -8.79386e-40 -0.0022505985 -0.060989145 -0.052932035
00000000: e2b1 1b3e f50b 5a3d 3e16 8f3d dfc3 70bd
00000010: 399a c83d 4887 8c3c c050 c482 deba d5bb
00000020: bea4 53bd 94db d0bd d9eb d7bd fc67 813e
00000030: dcef 51bd ae5b 673b b27e 383d 7ac0 613d
00000040: 6e3d f8bb 0cd2 703c 33b3 bebd 5199 0c3d
00000050: 9a37 fb3d 256c 8d3d b565 2fbe dc9c 1c3d
00000060: 3d2c e7bc c895 e73d 4d95 a3bd ef22 563d
00000070: 27dd 0180 28a2 b93d 7ac0 3d3e f415 223d
00000080: ddea 013e 5039 953d dbad 333e 5585 06bd
00000090: 8e80 283e 52bd 6a3d 1819 4183 5a19 9fbd
000000a0: 5622 363d 25ac 0b3e 8b86 b03c 8164 2c3e
000000b0: 3549 66bc c7da 91bd bf4a 4c3d 3f9d e33d
000000c0: 9ce7 673d 1334 7abd f95d df3d d360 aa3d
000000d0: 13a5 0dbd bbe8 0b3e a419 c1bd 00d6 75bd
000000e0: 7ac5 7d3d 0ddf 6ebd a06f 493e 8128 813e
000000f0: 5c47 0680 8a9d 133a 6712 343d 11c0 bdbd
00000100: fcab 65be 47b8 4d3d 31ee f5bd 67aa 2ebc
00000110: 8387 62bd 8c6e e5bd 30c2 5183 ca24 77be
00000120: 49a2 9e3e d4a9 463e c494 513d 687a ec3c
00000130: 58f6 65bc ccb0 9fbe 6961 1a3e 3f46 7a3e
00000140: 821e fa3b fb89 bebd a2e2 653e 376a 7ebd
00000150: c649 9bbd 88bc 87be ea5f abb9 e14f 213e
00000160: 2fc1 253d b08c 893c d540 26bc 5bae 8ebc
00000170: 19b7 0600 85d3 9fbe e541 6ebe 7b1d 8abe
00000180: 4000 f73d 1486 1cbd 25db ebbd 51ed 2dbd
00000190: 4e84 1cbe 91ef 6cbd 605b f202 c2ba 79bd
000001a0: 80f2 1cbe 1ef5 15be 287d 4e3e ce65 e3bd
000001b0: 2844 33be 3a6d 8dbe 129a b3bd a1f2 debd
000001c0: 6a17 8ebd 1ceb 76bc e75d 8c3c 4308 38be
000001d0: 9b67 11bd 0baf 203e 57c2 30bc 1104 4c3c
000001e0: 3556 51be dad3 2f3e 9f26 fb3d 9532 4fbe
000001f0: 9922 0100 9a03 f9bd 2f2a d83c 8bf0 103e
00000200: 8657 b7be ac56 d4bc 8c0f 9abe a42a 5c3d
00000210: 3128 1abe 45f3 15bd a31b 0982 b9c7 933d
00000220: 7f35 3dbe 9631 7abd 6208 28bc a624 ccbd
00000230: e2af 9d3d d6d7 3d3d acee 293e 33fd e5bd
00000240: 4f8a acbd 9746 113e 8321 383e 28e1 e23d
00000250: f288 e5bd cde4 bdbd aa12 a43d ebb0 66be
00000260: 9636 b6bc 6ea3 223d 92fc 9b3d b148 11be
00000270: 10cd fd02 4fe8 eb3d 5121 bd3d 20f6 1cbe
00000280: c6c2 d2bc e09d 83bd 7b8d 613d d86c 823d
00000290: 1971 603e 766f a23d 30c9 da82 005a 0b3e
000002a0: 7184 873c 7c13 4dbd 8645 9bbc a9fd d23d
000002b0: dd2f c6bd 1c9d 63be 09c8 013d efdd fa3c
000002c0: b68a 56bd be60 b83d e340 0ebd a781 c8bd
000002d0: 0b9f 293d 7f43 213d 12b7 d3bc e704 f93c
000002e0: 4d89 573c 01d5 033e 0a92 b33d eeb2 bb3d
000002f0: 94fc 0580 9680 15be b5a4 80be ceda f1bc
00000300: da7b 933e 5739 e5bd e576 0ebe 8aea b7bc
00000310: cbab 8ebd a24b bfbd d07a 3383 e7e8 a0bd
00000320: e4a6 3fbd bbef 4b3e 5a13 82bc 981e 72be
00000330: 87b9 ae3d 86ee 5e3e 5d08 78be 2ea4 de3d
00000340: ad2a 8abd 8be1 42bd bf62 afbd 55f4 553b
00000350: b569 40bd 4883 acbd 411f 5c3d 4376 88be
00000360: db05 0f3d 33d7 a03e 699a ddbd f42b 2abe
00000370: 289d 0603 74ac 183e 685f 62bd a3d9 e13d
00000380: 6a48 d43d 267a 83be ede9 d93d 270f 91bc
00000390: 1959 37bb d5a1 96bd 66f5 ce82 187f 45bd
000003a0: 493e 093e bdba b8bd 1402 f23d e180 b43d
000003b0: 0dbf 0b3d d201 a73e 0c14 483d 34f1 9dbc
000003c0: a835 30bc 47d2 10be 935f 24bd ab90 573e
000003d0: 771e 57bd 64e6 cf3d 3f39 62bd ce3c cebd
000003e0: 96b3 1bbe 46a2 fabc e042 873d 991e 183d
000003f0: 5f93 0980 c77e 13bb c1cf 79bd 43cf 58bd

lstm.bias_0 f4 [128]
0.022525078 0.46858808 -0.095366485 -0.0749309 0.010244989 0.24266617 3.200271e-37 -0.5745037
-0.15427122 0.16535531 0.49055916 0.3293302 -0.237342 0.5007302 0.27973452 0.43759823
-0.31145608 -0.37020245 -0.16335142 -0.093766674 -0.30045724 -0.15723217 0.003448302 -0.4013291
-0.386123 0.2572842 -0.4127801 0.28272775 -3.502412e-37 -0.34176072 -0.17795748 0.52004546
0.38117555 0.17370518 0.5943978 -0.48489565 0.37202558 -0.18746828 5.9613685e-37 -0.1853742
0.49624977 0.23018283 0.28654605 0.1718198 0.022674847 0.030472212 0.5283408 -0.0006275002
-0.008163254 0.004183655 0.39666897 -0.15710051 -0.1293343 0.5895436 0.21687202 -0.2063756
0.4140946 0.37975225 0.13191763 0.27783376 -4.67626e-40 0.65352213 0.45609185 0.31066015
0.0101840375 0.31833053 -0.065047994 -0.10054506 -0.015656123 0.42269543 -3.947964e-37 0.16582704
0.4240878 0.14262897 0.5165014 0.06644018 0.46840763 0.32665607 0.32332617 0.24271579
0.05320299 0.26672524 0.090558246 0.9756468 0.5441826 -0.030001992 0.08239905 0.4688155
0.3157756 -0.05307588 -0.07310983 -0.027470019 7.5199303e-38 0.31486544 0.17509678 0.40786594
-0.59781736 -0.13927987 -0.50929505 -0.28466073 -0.33419728 0.2633879 2.6398945e-37 -0.5227158
-0.3115795 -0.39240703 -0.16607337 -0.12656875 -0.4601966 0.09083368 0.13314421 0.04357566
-0.43541014 0.1855281 0.46177617 -0.82468426 -0.35628968 0.21133552 -0.34307408 -0.18906236
-0.07429864 0.41271895 0.48032033 -0.3989316 7.22741e-40 0.5252031 0.4889591 0.3279152
00000000: 8386 b83c c7ea ef3e 814f c3bd 5f75 99bd
00000010: 99da 273c 7b7d 783e 96cc d902 ad12 13bf
00000020: 46f9 1dbe e752 293e 922a fb3e f89d a83e
00000030: c809 73be db2f 003f 5d39 8f3e e00c e03e
00000040: 2c77 9fbe 2d8b bdbe 9845 27be be08 c0bd
00000050: 88d5 99be 7801 21be e8fc 613b 027b cdbe
00000060: eab1 c5be c1ba 833e ea57 d3be b1c1 903e
00000070: a05c ee82 43fb aebe 7c3a 36be b321 053f
00000080: 7129 c33e c5df 313e 742a 183f 3e44 f8be
00000090: 237a be3e aff7 3fbe d8da 4a03 bcd2 3dbe
000000a0: 7314 fe3e 0cb5 6b3e 2ab6 923e 88f1 2f3e
000000b0: 9ac0 b93c dca0 f93c 5841 073f d37e 24ba
000000c0: 2bbf 05bc 0b17 893b 3218 cb3e f5de 20be
000000d0: 3670 04be 54ec 163f b313 5e3e 2054 53be
000000e0: 3504 d43e e36e c23e 6a15 073e 3a40 8e3e
000000f0: 8d17 0580 3a4d 273f df84 e93e d90e 9f3e
00000100: f3da 263c 38fc a23e e237 85bd 92ea cdbd
00000110: 4541 80bc 896b d83e 9e57 0683 90ce 293e
00000120: 0922 d93e 540d 123e 7039 043f ca11 883d
00000130: 20d3 ef3e 773f a73e 028b a53e 7d8a 783e
00000140: 61eb 593d 3690 883e 9a76 b93d fdc3 793f
00000150: 8d4f 0b3f bdc6 f5bc d5c0 a83d 9608 f03e
00000160: 57ad a13e 1866 59bd 9bba 95bd ce08 e1bc
00000170: 44b6 cc01 0b36 a13e 924c 333e ced3 d03e
00000180: 8f0a 19bf 629f 0ebe 2961 02bf 0dbf 91be
00000190: e81b abbe c7da 863e 73a9 b302 b4d0 05bf
000001a0: 5987 9fbe 93e9 c8be 230f 2abe 3d9b 01be
000001b0: e49e ebbe 0207 ba3d f556 083e 647c 323d
000001c0: 14ee debe 14fb 3d3e ed6d ec3e 821e 53bf
000001d0: 9a6b b6be 5768 583e 68a7 afbe 9099 41be
000001e0: e329 98bd e64f d33e 8cec f53e c340 ccbe
000001f0: b5de 0700 b673 063f d958 fa3e 80e4 a73e

lstm.weight_W0_reverse f4 [32, 128]
-0.031806655 -0.11393657 -0.015444431 -0.18566099 0.0564929 -0.18157654 -0.11276458 0.33766142
0.13927409 0.12477435 0.10043683 -0.026956929 0.1871387 -0.33497483 0.055274677 -0.6113625
-0.17952053 0.057710946 -0.0427493 -0.21888517 0.10421855 -0.350846 0.018083584 0.031785797
-3.0711e-40 0.22973867 -0.09510023 -0.050362162 0.04003391 -0.15092367 0.022835093 -0.045408804
-0.04389113 -0.0947752 0.05989315 -0.23879564 0.12687175 -0.025807392 -0.044862427 0.09849304
0.15165988 -0.21312478 0.11447971 -0.02931211 -0.16793726 0.0019785434 0.04508722 -0.169628
0.047677126 0.09854266 -0.1528072 0.020704728 -0.05398397 -0.0035629391 0.07283732 -0.04858876
0.0034519075 -0.10142958 0.18307593 -0.06687026 0.02835313 -0.015390796 -0.10646741 -0.15720662
0.007819538 0.03719046 0.19363537 -0.05333654 -0.1055803 -0.26166284 0.082718596 -0.26884314
0.17857392 -0.35379595 0.06272931 0.11223011 0.3238717 0.077709325 0.123467706 0.0020983862
-0.089918666 0.0039215665 -0.047810588 0.12640819 0.0041490435 -0.010175254 0.15608796 -0.13831998
3.6695644e-37 0.14206672 -0.07817162 -0.03338765 -0.11394456 0.011739278 -0.034480307 0.0670521
-0.07872431 0.1055288 -0.2432035 -0.12785202 -0.16611043 -0.06377306 0.13827917 0.017922651
0.23747885 -0.34205398 0.061159045 -0.1465792 0.18694894 0.17666695 0.23362151 -0.14117476
-0.13987568 -0.038784705 0.11162703 0.09170729 -0.045416307 0.30158478 -0.075400986 0.21602409
0.019566407 0.04461674 0.35835108 -0.058764607 -0.18880144 0.1122607 -0.26100278 0.013737383
-0.005660056 0.004982131 0.011676546 0.11157998 0.020642174 0.049162224 0.007500302 0.12032099
0.025920242 0.019087488 -0.0016978519 -0.09655284 0.05954492 -0.07876141 -0.07881881 -0.07968301
0.109059624 -0.13409708 0.09716691 -0.05583732 -0.0244845 -0.1270259 -0.05341413 0.048134793
3.598043e-37 0.17923984 -0.034270562 0.11582458 0.018280944 0.05675108 -0.010524162 -0.03017462
-0.060769863 0.06350033 -0.038341947 -0.12205128 0.01641962 -0.030289698 0.017381907 -0.06554349
-0.052168317 -0.2281482 0.029068252 -0.05197086 -0.0069170194 -0.10779844 0.06123178 0.0348535
-0.054064143 -0.03381429 -0.013637787 -0.016444055 -0.04399806 0.0047021513 0.040970232 -0.09772352
-0.06202879 -0.113913305 0.1260213 -0.040458027 -0.1471908 -0.047131304 -0.04269014 -0.021529105
0.012061184 0.03391466 0.105475135 -0.31207356 -0.029382166 -0.13715239 0.03276796 -0.032192815
0.06373467 -0.2700969 0.027665246 0.12998587 0.23063977 0.0022997793 0.11583204 0.024969248
-0.030633004 -0.035714824 -0.06372628 0.030606221 -0.119436406 -0.0602624 0.11645962 -0.066080496
-3.1851779e-37 -0.0147984065 -0.09147839 -0.08350492 0.013013543 -0.13395068 0.038461145 0.060658406
-0.17800698 0.06108151 -0.07495227 0.074935794 -0.033457067 0.008908145 -0.076363765 -0.104459904
0.14700662 -0.12998867 0.04342107 -0.055766053 0.011263904 0.009551018 0.11975174 0.11848174
-0.065430164 -0.14778453 -0.085353546 0.06417716 0.016260868 -0.18155517 -0.012898214 -0.0072605964
0.0013472558 0.13679019 -0.011614116 0.015639974 -0.07721455 -0.07341788 0.063136466 0.007860568
00000000: b247 02bd 9457 e9bd a40a 7dbc ea1d 3ebe
00000010: 1965 673d 33ef 39be 1ef1 e6bd f5e1 ac3e
00000020: de9d 0e3e b289 ff3d d3b1 cd3d c7d4 dcbc
00000030: 4aa1 3f3e d281 abbe b367 623d 4182 1cbf
00000040: 3bd4 37be 5062 6c3d e419 2fbd 6f23 60be
00000050: 8970 d53d 16a2 b3be 0624 943c d331 023d
00000060: 1958 0380 9d40 6b3e e9c3 c2bd 8e48 4ebd
00000070: 99fa 233d bc8b 1abe a910 bb3c 95fe 39bd
00000080: 2fc7 33bd 8019 c2bd 8552 753d d886 74be
00000090: abea 013e 066a d3bc aac1 37bd b8b6 c93d
000000a0: ba4c 1b3e 623d 5abe 5774 ea3d f31f f0bc
000000b0: bff7 2bbe 73aa 013b 60ad 383d f6b2 2dbe
000000c0: 1749 433d bcd0 c93d 7e79 1cbe f69c a93c
000000d0: 4c1e 5dbd 3380 69bb bc2b 953d 0205 47bd
000000e0: 6639 623b 50ba cfbd 4278 3b3e 46f3 88bd
000000f0: d344 e83c ad29 7cbc 960b dabd c6fa 20be
00000100: 851d 003c 0655 183d 5a48 463e 6a77 5abd
00000110: 7c3a d8bd acf8 85be 5e68 a93d cfa5 89be
00000120: 15dc 363e be24 b5be 3978 803d e6d8 e53d
00000130: 83d2 a53e 1126 9f3d a3dc fc3d 1485 093b
00000140: 4727 b8bd 7c80 803b 09d5 43bd 2671 013e
00000150: b3f4 873b 1cb6 26bc 86d5 1f3e c1a3 0dbe
00000160: d4bc f902 f079 113e 7118 a0bd 7dc1 08bd
00000170: c45b e9bd 1a56 403c 393b 0dbd 9d52 893d
00000180: 363a a1bd 7c1f d83d 570a 79be a4eb 02be
00000190: da18 2abe 739b 82bd 0e99 0d3e 86d2 923c
000001a0: a82d 733e b321 afbe e881 7a3d dc18 16be
000001b0: 8b6f 3f3e 2ee8 343e 7a3a 6f3e 1e90 10be
000001c0: 923b 0fbe b6dc 1ebd b69c e43d 08d1 bb3d
000001d0: 7306 3abd 5269 9a3e d56b 9abd 6b35 5d3e
000001e0: bb49 a03c 0bc0 363d cb79 b73e 28b3 70bd
000001f0: 2a55 41be f0e8 e53d 28a2 85be c312 613c
00000200: fe77 b9bb 2541 a33b fc4e 3f3c 0b84 e43d
00000210: c719 a93c 545e 493d 18c5 f53b da6a f63d
00000220: b056 d43c 5d5d 9c3c 758a deba 7fbd c5bd
00000230: 60e5 733d aa4d a1bd c26b a1bd d930 a3bd
00000240: a75a df3d bf50 09be 72ff c63d acb5 64bd
00000250: b893 c8bc 1413 02be c6c8 5abd fd28 453d
00000260: c0de f402 a68a 373e 4a5f 0cbd 7035 ed3d
00000270: ebc1 953c d273 683d 896d 2cbc c430 f7bc
00000280: d2e9 78bd 760c 823d 720c 1dbd 06f6 f9bd
00000290: 7082 863c 1a22 f8bc 8064 8e3c aa3b 86bd
000002a0: 72ae 55bd af9f 69be 8b20 ee3c 66df 54bd
000002b0: 2aa8 e2bb 6ec5 dcbd 2dce 7a3d 8bc2 0e3d
000002c0: 5d72 5dbd da80 0abd 0671 5fbc afb5 86bc
000002d0: 4f37 34bd 8114 9a3b 67d0 273d 4523 c8bd
000002e0: e711 7ebd 614b e9bd ba0b 013e 51b7 25bd
000002f0: 2fb9 16be c10c 41bd dbdb 2ebd ce5d b0bc
00000300: 469c 453c 19ea 0a3d 5903 d83d 1bc8 9fbe
00000310: deb2 f0bc ad71 0cbe b237 063d 9ddc 03bd
00000320: 5387 823d 244a 8abe 3aa2 e23c 041b 053e
00000330: d52c 6c3e e5b7 163b 5939 ed3d 4f8c cc3c
00000340: 11f2 fabc b549 12bd ed82 82bd e6b9 fa3c
00000350: 139b f4bd b5d5 76bd 6282 ee3d 3655 87bd
00000360: a0c5 d882 0475 72bc 0659 bbbd a104 abbd
00000370: c136 553c 5e2a 09be 6f89 1d3d f374 783d
00000380: 7647 36be 9b30 7a3d 9380 99bd f077 993d
00000390: 470a 09bd 78f3 113c 9b64 9cbd 13ef d5bd
000003a0: e788 163e c01b 05be 4bda 313d f26a 64bd
000003b0: 3d8c 383c df7b 1c3c 6640 f53d 8ea6 f23d
000003c0: 4000 86bd d454 17be d7cd aebd 516f 833d
000003d0: 8335 853c 99e9 39be 0853 53bc 4cea edbb
000003e0: 6796 b03a ba12 0c3e 2249 3ebc 671f 803c
000003f0: a922 9ebd 1d5c 96bd b14d 813d 9dc9 003c

lstm.weight_U0_reverse f4 [32, 128]
0.015513241 -0.03338635 0.046391975 -0.057632644 0.0075511234 0.0036123437 0.032665927 -0.14388548
0.076849185 0.063029595 -0.018105438 0.02691414 0.0034008033 -0.028454084 0.0034890356 0.076814644
-0.19283497 0.07710633 -0.16785301 -0.046182867 0.034340788 -0.08469919 0.20400362 0.0075463085
-5.7277655e-37 0.07039085 0.08009301 0.27367592 -0.1486745 0.00584375 -0.042415377 0.025555125
0.0046803984 -0.023254884 0.078409515 0.017593497 -0.05144454 -0.020307537 0.15651432 -0.033256754
0.028673394 0.20002575 0.019030135 -0.01909611 0.0517426 0.035075918 0.005370417 -0.096865974
-0.10190999 -0.07018129 -0.06803574 0.18004954 -0.19463918 0.060925584 -0.0059401197 0.07967367
-0.035407327 0.07378385 -0.05772444 -0.06847556 -0.015134871 0.04604963 -0.03627765 -0.07585838
-0.041850876 0.10761767 0.062245008 0.058924153 -0.019426744 -0.113615766 0.16366504 0.21534
-0.18339285 -0.010115489 0.017114706 0.04024882 -0.013131079 0.025156034 -0.18839145 -0.02726519
0.017456 0.21364787 0.00276805 0.14560746 -0.09166518 0.13645872 0.18915884 0.011406604
-2.3111479e-37 0.12559451 0.15484461 -0.115426354 -0.21344276 0.11414073 -0.013891147 -0.034030996
-0.13777666 -0.12724 0.16999622 -0.026900355 0.049249925 -0.06817892 0.22822103 0.094547905
-0.03174706 -0.048672948 0.2203875 0.04612787 0.057297926 0.23208132 0.023515582 2.8277027e-05
-0.24921662 -0.15211394 0.06821649 0.1242867 0.035293058 0.1985735 -0.09426806 0.13466026
-0.050750535 -0.06810766 -0.1380923 -0.31502712 -0.1043793 0.16287191 -0.16811237 0.042417124
-0.05655657 0.009688168 0.029405558 -0.10098442 -0.07922965 0.021341603 -0.020103669 -0.15786928
0.05278992 0.017313503 -0.06551224 0.09426077 -0.15676841 -0.003100377 -0.1427044 0.22177681
-0.013704182 0.07220876 -0.17317465 0.06352174 -0.046553895 0.11841711 0.08173543 -0.1389625
2.4755047e-38 0.0028672705 0.051364444 0.15596163 0.13898668 0.0013989067 -0.05440188 0.08336615
-0.019512964 0.2172208 0.07350964 -0.17295001 0.14696793 0.09936305 -0.060002774 0.024107136
-0.10464462 0.07413894 0.089126125 0.08869871 0.052123837 -0.05262756 -0.14045501 -0.09114715
0.018988384 -0.0056190495 0.12599458 -0.16447732 -0.044498246 -0.0111456 0.055668857 0.0005926692
-0.030255435 0.08492419 0.064330935 0.02886932 -0.0007374447 0.008305532 0.029794073 0.1242184
0.29867744 0.024989253 -0.15477495 0.0787404 -0.1919438 -0.060190946 -0.0049759317 0.017332423
-0.19991411 0.054216493 -0.15328571 -0.17831288 -0.4538041 0.08687802 -0.23526801 -0.2147245
0.05989936 -0.13545488 -0.220992 -0.08269211 0.1395918 -0.09979154 -0.13100632 0.07122142
1.5153216e-38 0.03775743 -0.10100175 -0.022022491 0.004754743 -0.18221405 -0.051236242 -0.4193424
0.16102572 -0.18915646 -0.16105442 0.040105086 0.13765255 -0.10727957 0.059365913 0.026118696
0.12158066 0.20674728 0.06974953 0.008374154 -0.09529508 0.16570583 -0.13992867 0.19892414
-0.01170064 0.05976354 0.014580482 -0.02121295 0.1720863 -0.22954713 0.063760385 -0.23894303
-0.03794775 0.05847804 -0.03248503 -0.12412587 -0.17855456 0.046860952 -0.1268879 0.048016142
00000000: 402b 7e3c 20c0 08bd 8305 3e3d 3510 6cbd
00000010: 6a6f f73b 12bd 6c3b b5cc 053d b756 13be
00000020: 1b63 9d3d a915 813d db51 94bc 0b7b dc3c
00000030: 03e0 5e3b 8a18 e9bc 4ea8 643b ff50 9d3d
00000040: 8876 45be ece9 9d3d a9e1 2bbe 3f2a 3dbd
00000050: eda8 0c3d c576 adbd 53e6 503e 0647 f73b
00000060: e0e7 4283 1429 903d ce07 a43d 401f 8c3e
00000070: 213e 18be ee7c bf3b bfbb 2dbd fb58 d13c
00000080: 075e 993b 0781 bebc 2b95 a03d 3d20 903c
00000090: 83b7 52bd fe5b a6bc 4a45 203e 3c38 08bd
000000a0: 77e4 ea3c 8dd3 4c3e 16e5 9b3c 726f 9cbc
000000b0: 0cf0 533d c4ab 0f3d 53fa af3b ab61 c6bd
000000c0: 2fb6 d0bd 35bb 8fbd 5256 8bbd e85e 383e
000000d0: 7e4f 47be 1b8d 793d 56a5 c2bb f32b a33d
000000e0: 4607 11bd fd1b 973d 7670 6cbd ea3c 8cbd
000000f0: 40f8 77bc 899e 3c3d e097 14bd a35b 9bbd
00000100: d36b 2bbd a766 dc3d 9ff4 7e3d 745a 713d
00000110: d624 9fbc 62af e8bd cf97 273e 1782 5c3e
00000120: 56cb 3bbe 70bb 25bc 2434 8c3c f2db 243d
00000130: bd23 57bc 0714 ce3c b0e9 40be 3f5b dfbc
00000140: e3ff 8e3c 82c6 5a3e 2c68 353b 1f1a 153e
00000150: f4ba bbbd d6bb 0b3e dbb2 413e c4e2 3a3c
00000160: e049 9d82 d99b 003e 968f 1e3e a764 ecbd
00000170: bd90 5abe 9dc2 e93d b297 63bc 1664 0bbd
00000180: 5315 0dbe 344b 02be 7d13 2e3e 225e dcbc
00000190: 4aba 493d 64a1 8bbd c6b2 693e 55a2 c13d
000001a0: 3509 02bd 495d 47bd 43ad 613e 94f0 3c3d
000001b0: 3bb1 6a3d baa6 6d3e c0a3 c03c 7434 ed37
000001c0: a432 7fbe c2c3 1bbe 16b5 8b3d 068a fe3d
000001d0: 748f 103d da56 4b3e 9d0f c1bd 61e4 093e
000001e0: cbdf 4fbd 077c 8bbd 1168 0dbe 3c4b a1be
000001f0: d0c4 d5bd e5c7 263e a625 2cbe 94bd 2d3d
00000200: dda7 67bd 1fbb 1e3c ede3 f03c ebd0 cebd
00000210: 2843 a2bd 96d4 ae3c 73b0 a4bc 7ca8 21be
00000220: 3e3a 583d 0cd5 8d3c 482b 86bd ca0b c13d
00000230: e687 20be b22f 4bbb 1a21 12be 7619 633e
00000240: 8187 60bc 30e2 933d b254 31be b017 823d
00000250: 4caf 3ebd ab84 f23d e864 a73d 304c 0ebe
00000260: 80c7 0601 d1e8 3b3b 8663 523d 68b4 1f3e
00000270: 8652 0e3e 855b b73a 81d4 5ebd dfbb aa3d
00000280: a7d9 9fbc 216f 5e3e 398c 963d cf19 31be
00000290: c37e 163e db7e cb3d 78c5 75bd 547c c53c
000002a0: eb4f d6bd 28d6 973d c287 b63d aba7 b53d
000002b0: ce7f 553d ff8f 57bd 70d3 0fbe 5bab babd
000002c0: 878d 9b3c 0120 b8bb b904 013e be6c 28be
000002d0: cb43 36bd 099c 36bc 0705 643d 5b5d 1b3a
000002e0: 3fda f7bc bcec ad3d f0bf 833d 5a7f ec3c
000002f0: 1351 41ba ed13 083c b312 f43c 3766 fe3d
00000300: 40ec 983e 43b6 cc3c 537d 1ebe a642 a13d
00000310: ea8c 44be c88a 76bd 240d a3bb bafc 8d3c
00000320: 49b6 4cbe 1d12 5e3d eef6 1cbe a797 36be
00000330: 0359 e8be 1aed b13d 19ea 70be bde0 5bbe
00000340: 0859 753d afb4 0abe ba4b 62be 7b5a a9bd
00000350: 27f1 0e3e 825f ccbd 8526 06be 89dc 913d
00000360: 0001 a500 89a7 1a3d 01da cebd 8368 b4bc
00000370: adcd 9b3b 5296 3abe 18dd 51bd 0cb4 d6be
00000380: ede3 243e 3bb2 41be 73eb 24be 3b45 243d
00000390: caf4 0c3e 64b5 dbbd ac29 733d e0f6 d53c
000003a0: 48ff f83d 8fb5 533e d7d8 8e3d bf33 093c
000003b0: 112a c3bd caae 293e 7649 0fbe c5b2 4b3e
000003c0: 0bb4 3fbc 9dca 743d f9e2 6e3c c8c6 adbc
000003d0: 6437 303e 670e 6bbe ce94 823d 7bad 74be
000003e0: 1a6f 1bbd ab86 6f3d 060f 05bd b435 febd
000003f0: 02d7 36be 45f1 3f3d e7ee 01be 93ac 443d

lstm.bias_0_reverse f4 [128]
-0.316747 -0.26242813 -0.18313108 0.10413641 -0.15905634 -0.2354074 -0.26064205 -0.09288061
-0.31429943 0.577671 0.11999018 -0.08556522 0.40040913 -0.12729314 0.29460403 0.10266587
-0.14690995 0.07268355 0.0025738806 -0.36432174 -0.016431563 -0.091464505 0.035918355 0.39977658
2.9455984e-37 -0.22610688 0.041053027 0.19368827 -0.053420108 -0.5140606 -0.34313726 -0.44557542
-0.0352439 0.40273225 0.033451453 0.0875626 0.61969167 0.15325524 0.14914079 -0.018173587
0.19576746 0.18647279 -0.45467684 0.34033677 -0.2463356 -0.13994333 0.4429018 -0.2943458
0.23512226 0.6246611 -0.60917556 0.24891205 0.29462862 0.2360921 0.5337599 0.30167755
-0.12942097 0.019229578 0.31939015 -0.25325134 0.48256364 0.0011513089 0.3310199 0.318087
-0.028720973 -0.07852699 0.16955037 0.5449233 0.120587245 0.62094927 0.28998432 0.50420874
0.017072849 0.6328906 0.006710691 -0.19478047 0.10391723 1.0126113 -0.06463775 0.85007274
0.4525352 0.18063906 0.172053 0.45678976 0.5392498 0.5778179 0.099960655 0.479
-6.3054503e-37 0.5275989 0.37257475 0.42469376 -0.036811266 0.041550703 0.124302834 0.01991298
0.1869031 -0.23145755 0.28245226 0.4618731 -0.22935222 0.59487426 -0.14995554 0.5300986
0.27065796 0.121723674 0.2547346 -0.48938847 0.41862002 0.5832289 0.40136838 -0.73206544
0.19856934 0.39180782 0.43795645 -0.11703769 0.1563412 0.41229525 -0.53989094 -0.07811135
0.4430533 -0.6023406 -0.026240975 -0.08478866 -0.49494442 0.491761 -0.13525496 -0.4073518
00000000: aa2c a2be fb5c 86be b786 3bbe 7845 d53d
00000010: aadf 22be a30e 71be e072 85be 3038 bebd
00000020: dbeb a0be 3fe2 133f 69bd f53d d13c afbd
00000030: 6d02 cd3e 2259 02be 57d6 963e 7c42 d23d
00000040: 906f 16be 1ddb 943d 8dae 283b 6188 babe
00000050: 7c9b 86bc be51 bbbd 201f 133d 84af cc3e
00000060: 9077 c802 9088 67be 3827 283d 3856 463e
00000070: 0bcf 5abd 7a99 03bf b0af afbe 7622 e4be
00000080: e85b 10bd ec32 ce3e 6404 093d 0554 b33d
00000090: 1da4 1e3f f1ee 1c3e 5db8 183e c6e0 94bc
000000a0: 4477 483e b9f2 3e3e 67cb e8be 9f40 ae3e
000000b0: 663f 7cbe 4e4d 0fbe 06c4 e23e 7eb4 96be
000000c0: e4c3 703e cae9 1f3f eef2 1bbf cde2 7e3e
000000d0: 90d9 963e 21c2 713e 7da4 083f 7b75 9a3e
000000e0: ee86 04be 5987 9d3c 1b87 a33e 29aa 81be
000000f0: 9512 f73e 84e7 963a 717b a93e 4ddc a23e
00000100: 3f48 ebbc c2d2 a0bd 9d9e 2d3e 1880 0b3f
00000110: 72f6 f63d 88f6 1e3f d378 943e d313 013f
00000120: 5cdc 8b3c 1e05 223f 5be5 db3b 8874 47be
00000130: 8fd2 d43d 3f9d 813f cc60 84bd 5e9e 593f
00000140: b2b2 e73e 72f9 383e a92e 303e 59e0 e93e
00000150: 460c 0a3f e0eb 133f 2cb8 cc3d 7d3f f53e
00000160: 3890 5683 b910 073f 1ec2 be3e 7671 d93e
00000170: 69c7 16bd 1231 2a3d 7c92 fe3d 8c20 a33c
00000180: 8763 3f3e 3503 6dbe 959d 903e a27a ec3e
00000190: 4fdb 6abe ae49 183f f28d 19be 8bb4 073f
000001a0: ae93 8a3e 434a f93d 936c 823e 2091 fabe
000001b0: 5d55 d63e 7d4e 153f 2880 cd3e a468 3bbf
000001c0: c355 4b3e 099b c83e d43b e03e 75b1 efbd
000001d0: e817 203e 5d18 d33e 4b36 0abf d8f8 9fbd
000001e0: e2d7 e23e fe32 1abf 50f7 d6bc ada5 adbd
000001f0: 5b69 fdbe 19c8 fb3e 4780 0abe 6a90 d0be

lstm.weight_W1 f4 [64, 128]
-0.0033810283 0.05030878 0.030412316 -0.0026637672 0.051149108 0.08526383 -0.002508242 0.054406058
0.053333014 0.25002337 -0.13104653 -0.010720751 -0.018532807 -6.749932e-37 -0.009474053 0.064041376
0.031796217 0.01752344 -0.029532675 -0.025051229 0.02998506 -0.16411507 -0.21248034 -0.0127764605
-0.033763025 0.33344755 0.015457872 -1.4877673e-37 0.041730627 -0.072784044 -0.006204722 0.16291705
-0.018475872 0.054324474 -0.038834017 0.1114862 0.10780342 0.052413993 0.050836097 0.08609666
0.060130674 0.0003802814 0.042569153 0.12026835 0.019995013 -0.013155772 0.03974617 -0.05048465
-0.057671536 0.06956317 -0.05939721 -0.041479804 0.08571873 0.01041921 -0.0574187 0.0021981788
0.09227199 0.054534953 0.058993064 3.307127e-38 0.20680226 0.056935217 -0.044449583 -0.20389536
-0.08107324 0.085567 0.009220281 0.05918156 0.07382981 0.009531454 -0.044633683 -0.032408256
-0.06012404 -0.10039995 -0.043096628 0.016217023 -0.09561381 5.5782176e-37 0.042506512 0.06655327
-0.0075609516 -0.08955246 0.0036317806 0.06315673 -0.01230976 -0.06584242 0.051911585 0.077816315
0.022779018 -0.057438575 0.0012531105 -5.9009795e-37 -0.06900762 0.042148955 0.08181692 -0.043054122
-0.0007796446 -0.08298409 -0.0013064282 -0.02117067 -0.009904185 -0.022003466 -0.02298639 -0.047031768
-0.034604542 -0.13647453 -0.047215316 0.06662095 0.017159358 -0.0070015294 -0.10131125 0.03755154
-0.03522361 -0.050507158 -0.05996129 -0.0042223055 -0.15101615 -0.045614306 0.052924797 0.018424917
-0.0050302832 -0.013482414 -0.0061447867 2.5825224e-37 0.093050145 -0.022073649 -0.10287629 -0.07674379
-0.0320723 0.105110265 -0.06605324 0.048239987 0.03458093 -0.13206409 0.022946445 0.07028183
0.04471975 0.009959022 0.07835164 0.21308206 -0.05497908 5.4549047e-37 -0.14417267 -0.024136586
-0.0077013294 -0.07435595 0.1836808 -0.13423556 -0.07679879 0.1040718 -0.043263894 0.020884255
-0.17867953 0.14600979 -0.1152375 6.5502385e-37 -0.022391956 -0.072852395 0.018597879 -0.0077931555
0.061494894 0.082499765 -0.10879256 0.051712483 -0.082239114 -0.02294688 -0.047606777 -0.10103538
0.02299082 -0.081513986 -0.046580773 0.11845032 0.11455559 0.13548039 0.18804643 0.066114545
-0.0010259558 -0.11822555 -0.009842415 -0.05078968 -0.007651776 -0.10534089 -0.012709366 0.042352434
-0.046439543 -0.0566449 -0.073848024 -1.391496e-37 -0.029383471 -0.054664113 0.071344145 -0.011608134
-0.084844306 0.042896237 -0.03101643 -0.4173509 -0.113132425 -0.081265956 0.001594595 -0.013752631
0.0662688 -0.02252351 -0.0070997975 -0.013221856 0.15345736 -3.2388864e-37 -0.10617234 -0.0252504
0.01533057 0.1734883 -0.011334773 0.05313065 0.11489309 0.047538847 -0.12128582 0.05318271
-0.00014062723 -0.03451797 -0.0851689 3.3290044e-37 0.04408001 -0.04461395 0.08443564 -0.07154128
-0.028754137 0.01735312 0.1145888 0.019459488 -0.2276146 0.077284224 -0.14314696 -0.06893819
0.0025115085 -0.023171965 0.12043984 -0.11893889 -0.15064971 0.012397563 0.040350333 0.1720579
-0.14177571 -0.034077782 0.107068 -0.03022018 -0.11647452 -0.0129962135 0.05255148 -0.100141264
-0.051492445 0.0068108966 -0.122651495 3.8938466e-37 -0.10709414 -0.11018233 -0.11249923 -0.058013406
00000000: 3e94 5dbb 9410 4e3d 4023 f93c 9992 2ebb
00000010: ba81 513d ce9e ae3d 5161 24bb e3d8 5e3d
00000020: b873 5a3d 1003 803e 1031 06be 17a6 2fbc
00000030: 1dd2 97bc 33b0 6583 0f39 1bbc 2028 833d
00000040: c03c 023d 518d 8f3c 82ee f1bc 3c38 cdbc
00000050: 3ba3 f53c c80d 28be 7294 59be 5c54 51bc
00000060: 194b 0abd a3b9 aa3e 0443 7d3c 2081 4a82
00000070: bced 2a3d cd0f 95bd fb50 cbbb bad3 263e
00000080: b65a 97bc 5783 5e3d 6b10 1fbd e052 e43d
00000090: 0ac8 dc3d 0eb0 563d 8339 503d 7253 b03d
000000a0: 954b 763d 8160 c739 fe5c 2e3d 414f f63d
000000b0: 95cc a33c 4f8b 57bc e1cc 223d fec8 4ebd
000000c0: fd38 6cbd 2377 8e3d 7d4a 73bd bae6 29bd
000000d0: 4d8d af3d 56b5 2a3c df2f 6bbd 520f 103b
000000e0: 19f9 bc3d 0b60 5f3d b6a2 713d 9f0e 3401
000000f0: f9c3 533e e734 693d c410 36bd f2c9 50be
00000100: ba09 a6bd c03d af3d a910 173c 5d68 723d
00000110: 1534 973d d129 1c3c cfd1 36bd 85be 04bd
00000120: a044 76bd 7d9e cdbd 1786 30bd 90d9 843c
00000130: 2cd1 c3bd 21d1 3d03 4f1b 2e3d 154d 883d
00000140: dcc1 f7bb 4867 b7bd 2b03 6e3b 5158 813d
00000150: e0ae 49bc 64d8 86bd 3ea1 543d 295e 9f3d
00000160: 109b ba3c b644 6bbd 693f a43a c8cc 4883
00000170: de53 8dbd 62a4 2c3d a18f a73d 8559 30bd
00000180: 1061 4cba 90f3 a9bd 753c abba 1d6e adbc
00000190: 2a45 22bc 9d40 b4bc f44d bcbc 62a4 40bd
000001a0: 7ebd 0dbd fbbf 0bbe d964 41bd 9170 883d
000001b0: c891 8c3c 166d e5bb 467c cfbd a5cf 193d
000001c0: a246 10bd 98e0 4ebd f899 75bd 445b 8abb
000001d0: faa3 1abe 11d6 3abd acc7 583d daef 963c
000001e0: 13d5 a4bb 58e5 5cbc 355a c9bb e3c1 af02
000001f0: 1391 be3d ccd3 b4bc ceb0 d2bd d92b 9dbd
00000200: 3e5e 03bd 0d44 d73d ec46 87bd 4b97 453d
00000210: bca4 0d3d cf3b 07be 2ffa bb3c ecef 8f3d
00000220: 0e2c 373d 2a2b 233c d376 a03d 2f32 5a3e
00000230: be31 61bd ec9e 3903 00a2 13be 17ba c5bc
00000240: 6f5b fcbb ef47 98bd d216 3c3e 0c75 09be
00000250: af48 9dbd 9923 d53d 7b35 31bd 7515 ab3c
00000260: c4f7 36be 9783 153e a301 ecbd a0e4 5e03
00000270: 566f b7bc a333 95bd 945a 983c ba5d ffbb
00000280: 12e2 7b3d a3f5 a83d a2ce debd 78d0 533d
00000290: fb6c a8bd 18fb bbbc 53ff 42bd a3eb cebd
000002a0: 3f57 bc3c cef0 a6bd 7bcb 3ebd 1596 f23d
000002b0: 1f9c ea3d 5fbb 0a3e 3e8f 403e 1067 873d
000002c0: 5d79 86ba 3d20 f2bd 1542 21bc d708 50bd
000002d0: c0bb fabb f7bc d7bd f23a 50bc bf79 2d3d
000002e0: 6437 3ebd 7c04 68bd a23d 97bd 8f66 3d82
000002f0: 9bb5 f0bc 7ae7 5fbd e11c 923d 0b30 3ebc
00000300: dac2 adbd f7b3 2f3d 2b16 febc 04af d5be
00000310: f9b1 e7bd c46e a6bd bb01 d13a b752 61bc
00000320: f0b7 873d 3983 b8bc 6ba5 e8bb 7ca0 58bc
00000330: ed23 1d3e 5c6d dc82 e270 d9bd edd9 cebc
00000340: 122d 7b3c eba6 313e 7cb5 39bc 869f 593d
00000350: 124d eb3d 18b8 423d b364 f8bd 1dd6 593d
00000360: 5675 13b9 b762 0dbd 086d aebd 708f e202
00000370: 3e8d 343d 1ebd 36bd 98ec ac3d 3c84 92bd
00000380: cc8d ebbc 2128 8e3c 88ad ea3d 8169 9f3c
00000390: cd13 69be 3147 9e3d 1e95 12be 772f 8dbd
000003a0: 1f98 243b 22d3 bdbc 2aa9 f63d 3c96 f3bd
000003b0: eb43 1abe 261f 4b3c 6446 253d f22f 303e
000003c0: a72d 11be 2595 0bbd 7846 db3d 5090 f7bc
000003d0: 318a eebd 12ee 54bc 3840 573d dd16 cdbd
000003e0: bee9 52bd f12d df3b b530 fbbd 3080 0403
000003f0: 2c54 dbbd 46a7 e1bd ff65 e6bd 779f 6dbd
